{"config": {"name": "model_2", "layers": [{"name": "input_3", "config": {"name": "input_3", "dtype": "float32", "sparse": false, "batch_input_shape": [null, null, null, 3]}, "class_name": "InputLayer", "inbound_nodes": []}, {"name": "conv2d_1", "config": {"name": "conv2d_1", "filters": 32, "bias_constraint": null, "kernel_constraint": null, "trainable": true, "kernel_regularizer": {"config": {"l1": 0.0, "l2": 0.0005000000237487257}, "class_name": "L1L2"}, "strides": [1, 1], "dilation_rate": [1, 1], "activation": "linear", "activity_regularizer": null, "kernel_size": [3, 3], "kernel_initializer": {"config": {"seed": null, "distribution": "uniform", "mode": "fan_avg", "scale": 1.0}, "class_name": "VarianceScaling"}, "use_bias": false, "padding": "same", "bias_initializer": {"config": {}, "class_name": "Zeros"}, "data_format": "channels_last", "bias_regularizer": null}, "class_name": "Conv2D", "inbound_nodes": [[["input_3", 0, 0, {}]]]}, {"name": "batch_normalization_1", "config": {"name": "batch_normalization_1", "beta_regularizer": null, "moving_variance_initializer": {"config": {}, "class_name": "Ones"}, "scale": true, "gamma_initializer": {"config": {}, "class_name": "Ones"}, "trainable": true, "gamma_regularizer": null, "gamma_constraint": null, "moving_mean_initializer": {"config": {}, "class_name": "Zeros"}, "axis": -1, "epsilon": 0.001, "beta_initializer": {"config": {}, "class_name": "Zeros"}, "center": true, "momentum": 0.99, "beta_constraint": null}, "class_name": "BatchNormalization", "inbound_nodes": [[["conv2d_1", 0, 0, {}]]]}, {"name": "leaky_re_lu_1", "config": {"name": "leaky_re_lu_1", "trainable": true, "alpha": 0.10000000149011612}, "class_name": "LeakyReLU", "inbound_nodes": [[["batch_normalization_1", 0, 0, {}]]]}, {"name": "zero_padding2d_1", "config": {"name": "zero_padding2d_1", "trainable": true, "data_format": "channels_last", "padding": [[1, 0], [1, 0]]}, "class_name": "ZeroPadding2D", "inbound_nodes": [[["leaky_re_lu_1", 0, 0, {}]]]}, {"name": "conv2d_2", "config": {"name": "conv2d_2", "filters": 64, "bias_constraint": null, "kernel_constraint": null, "trainable": true, "kernel_regularizer": {"config": {"l1": 0.0, "l2": 0.0005000000237487257}, "class_name": "L1L2"}, "strides": [2, 2], "dilation_rate": [1, 1], "activation": "linear", "activity_regularizer": null, "kernel_size": [3, 3], "kernel_initializer": {"config": {"seed": null, "distribution": "uniform", "mode": "fan_avg", "scale": 1.0}, "class_name": "VarianceScaling"}, "use_bias": false, "padding": "valid", "bias_initializer": {"config": {}, "class_name": "Zeros"}, "data_format": "channels_last", "bias_regularizer": null}, "class_name": "Conv2D", "inbound_nodes": [[["zero_padding2d_1", 0, 0, {}]]]}, {"name": "batch_normalization_2", "config": {"name": "batch_normalization_2", "beta_regularizer": null, "moving_variance_initializer": {"config": {}, "class_name": "Ones"}, "scale": true, "gamma_initializer": {"config": {}, "class_name": "Ones"}, "trainable": true, "gamma_regularizer": null, "gamma_constraint": null, "moving_mean_initializer": {"config": {}, "class_name": "Zeros"}, "axis": -1, "epsilon": 0.001, "beta_initializer": {"config": {}, "class_name": "Zeros"}, "center": true, "momentum": 0.99, "beta_constraint": null}, "class_name": "BatchNormalization", "inbound_nodes": [[["conv2d_2", 0, 0, {}]]]}, {"name": "leaky_re_lu_2", "config": {"name": "leaky_re_lu_2", "trainable": true, "alpha": 0.10000000149011612}, "class_name": "LeakyReLU", "inbound_nodes": [[["batch_normalization_2", 0, 0, {}]]]}, {"name": "conv2d_3", "config": {"name": "conv2d_3", "filters": 32, "bias_constraint": null, "kernel_constraint": null, "trainable": true, "kernel_regularizer": {"config": {"l1": 0.0, "l2": 0.0005000000237487257}, "class_name": "L1L2"}, "strides": [1, 1], "dilation_rate": [1, 1], "activation": "linear", "activity_regularizer": null, "kernel_size": [1, 1], "kernel_initializer": {"config": {"seed": null, "distribution": "uniform", "mode": "fan_avg", "scale": 1.0}, "class_name": "VarianceScaling"}, "use_bias": false, "padding": "same", "bias_initializer": {"config": {}, "class_name": "Zeros"}, "data_format": "channels_last", "bias_regularizer": null}, "class_name": "Conv2D", "inbound_nodes": [[["leaky_re_lu_2", 0, 0, {}]]]}, {"name": "batch_normalization_3", "config": {"name": "batch_normalization_3", "beta_regularizer": null, "moving_variance_initializer": {"config": {}, "class_name": "Ones"}, "scale": true, "gamma_initializer": {"config": {}, "class_name": "Ones"}, "trainable": true, "gamma_regularizer": null, "gamma_constraint": null, "moving_mean_initializer": {"config": {}, "class_name": "Zeros"}, "axis": -1, "epsilon": 0.001, "beta_initializer": {"config": {}, "class_name": "Zeros"}, "center": true, "momentum": 0.99, "beta_constraint": null}, "class_name": "BatchNormalization", "inbound_nodes": [[["conv2d_3", 0, 0, {}]]]}, {"name": "leaky_re_lu_3", "config": {"name": "leaky_re_lu_3", "trainable": true, "alpha": 0.10000000149011612}, "class_name": "LeakyReLU", "inbound_nodes": [[["batch_normalization_3", 0, 0, {}]]]}, {"name": "conv2d_4", "config": {"name": "conv2d_4", "filters": 64, "bias_constraint": null, "kernel_constraint": null, "trainable": true, "kernel_regularizer": {"config": {"l1": 0.0, "l2": 0.0005000000237487257}, "class_name": "L1L2"}, "strides": [1, 1], "dilation_rate": [1, 1], "activation": "linear", "activity_regularizer": null, "kernel_size": [3, 3], "kernel_initializer": {"config": {"seed": null, "distribution": "uniform", "mode": "fan_avg", "scale": 1.0}, "class_name": "VarianceScaling"}, "use_bias": false, "padding": "same", "bias_initializer": {"config": {}, "class_name": "Zeros"}, "data_format": "channels_last", "bias_regularizer": null}, "class_name": "Conv2D", "inbound_nodes": [[["leaky_re_lu_3", 0, 0, {}]]]}, {"name": "batch_normalization_4", "config": {"name": "batch_normalization_4", "beta_regularizer": null, "moving_variance_initializer": {"config": {}, "class_name": "Ones"}, "scale": true, "gamma_initializer": {"config": {}, "class_name": "Ones"}, "trainable": true, "gamma_regularizer": null, "gamma_constraint": null, "moving_mean_initializer": {"config": {}, "class_name": "Zeros"}, "axis": -1, "epsilon": 0.001, "beta_initializer": {"config": {}, "class_name": "Zeros"}, "center": true, "momentum": 0.99, "beta_constraint": null}, "class_name": "BatchNormalization", "inbound_nodes": [[["conv2d_4", 0, 0, {}]]]}, {"name": "leaky_re_lu_4", "config": {"name": "leaky_re_lu_4", "trainable": true, "alpha": 0.10000000149011612}, "class_name": "LeakyReLU", "inbound_nodes": [[["batch_normalization_4", 0, 0, {}]]]}, {"name": "add_1", "config": {"name": "add_1", "trainable": true}, "class_name": "Add", "inbound_nodes": [[["leaky_re_lu_2", 0, 0, {}], ["leaky_re_lu_4", 0, 0, {}]]]}, {"name": "zero_padding2d_2", "config": {"name": "zero_padding2d_2", "trainable": true, "data_format": "channels_last", "padding": [[1, 0], [1, 0]]}, "class_name": "ZeroPadding2D", "inbound_nodes": [[["add_1", 0, 0, {}]]]}, {"name": "conv2d_5", "config": {"name": "conv2d_5", "filters": 128, "bias_constraint": null, "kernel_constraint": null, "trainable": true, "kernel_regularizer": {"config": {"l1": 0.0, "l2": 0.0005000000237487257}, "class_name": "L1L2"}, "strides": [2, 2], "dilation_rate": [1, 1], "activation": "linear", "activity_regularizer": null, "kernel_size": [3, 3], "kernel_initializer": {"config": {"seed": null, "distribution": "uniform", "mode": "fan_avg", "scale": 1.0}, "class_name": "VarianceScaling"}, "use_bias": false, "padding": "valid", "bias_initializer": {"config": {}, "class_name": "Zeros"}, "data_format": "channels_last", "bias_regularizer": null}, "class_name": "Conv2D", "inbound_nodes": [[["zero_padding2d_2", 0, 0, {}]]]}, {"name": "batch_normalization_5", "config": {"name": "batch_normalization_5", "beta_regularizer": null, "moving_variance_initializer": {"config": {}, "class_name": "Ones"}, "scale": true, "gamma_initializer": {"config": {}, "class_name": "Ones"}, "trainable": true, "gamma_regularizer": null, "gamma_constraint": null, "moving_mean_initializer": {"config": {}, "class_name": "Zeros"}, "axis": -1, "epsilon": 0.001, "beta_initializer": {"config": {}, "class_name": "Zeros"}, "center": true, "momentum": 0.99, "beta_constraint": null}, "class_name": "BatchNormalization", "inbound_nodes": [[["conv2d_5", 0, 0, {}]]]}, {"name": "leaky_re_lu_5", "config": {"name": "leaky_re_lu_5", "trainable": true, "alpha": 0.10000000149011612}, "class_name": "LeakyReLU", "inbound_nodes": [[["batch_normalization_5", 0, 0, {}]]]}, {"name": "conv2d_6", "config": {"name": "conv2d_6", "filters": 64, "bias_constraint": null, "kernel_constraint": null, "trainable": true, "kernel_regularizer": {"config": {"l1": 0.0, "l2": 0.0005000000237487257}, "class_name": "L1L2"}, "strides": [1, 1], "dilation_rate": [1, 1], "activation": "linear", "activity_regularizer": null, "kernel_size": [1, 1], "kernel_initializer": {"config": {"seed": null, "distribution": "uniform", "mode": "fan_avg", "scale": 1.0}, "class_name": "VarianceScaling"}, "use_bias": false, "padding": "same", "bias_initializer": {"config": {}, "class_name": "Zeros"}, "data_format": "channels_last", "bias_regularizer": null}, "class_name": "Conv2D", "inbound_nodes": [[["leaky_re_lu_5", 0, 0, {}]]]}, {"name": "batch_normalization_6", "config": {"name": "batch_normalization_6", "beta_regularizer": null, "moving_variance_initializer": {"config": {}, "class_name": "Ones"}, "scale": true, "gamma_initializer": {"config": {}, "class_name": "Ones"}, "trainable": true, "gamma_regularizer": null, "gamma_constraint": null, "moving_mean_initializer": {"config": {}, "class_name": "Zeros"}, "axis": -1, "epsilon": 0.001, "beta_initializer": {"config": {}, "class_name": "Zeros"}, "center": true, "momentum": 0.99, "beta_constraint": null}, "class_name": "BatchNormalization", "inbound_nodes": [[["conv2d_6", 0, 0, {}]]]}, {"name": "leaky_re_lu_6", "config": {"name": "leaky_re_lu_6", "trainable": true, "alpha": 0.10000000149011612}, "class_name": "LeakyReLU", "inbound_nodes": [[["batch_normalization_6", 0, 0, {}]]]}, {"name": "conv2d_7", "config": {"name": "conv2d_7", "filters": 128, "bias_constraint": null, "kernel_constraint": null, "trainable": true, "kernel_regularizer": {"config": {"l1": 0.0, "l2": 0.0005000000237487257}, "class_name": "L1L2"}, "strides": [1, 1], "dilation_rate": [1, 1], "activation": "linear", "activity_regularizer": null, "kernel_size": [3, 3], "kernel_initializer": {"config": {"seed": null, "distribution": "uniform", "mode": "fan_avg", "scale": 1.0}, "class_name": "VarianceScaling"}, "use_bias": false, "padding": "same", "bias_initializer": {"config": {}, "class_name": "Zeros"}, "data_format": "channels_last", "bias_regularizer": null}, "class_name": "Conv2D", "inbound_nodes": [[["leaky_re_lu_6", 0, 0, {}]]]}, {"name": "batch_normalization_7", "config": {"name": "batch_normalization_7", "beta_regularizer": null, "moving_variance_initializer": {"config": {}, "class_name": "Ones"}, "scale": true, "gamma_initializer": {"config": {}, "class_name": "Ones"}, "trainable": true, "gamma_regularizer": null, "gamma_constraint": null, "moving_mean_initializer": {"config": {}, "class_name": "Zeros"}, "axis": -1, "epsilon": 0.001, "beta_initializer": {"config": {}, "class_name": "Zeros"}, "center": true, "momentum": 0.99, "beta_constraint": null}, "class_name": "BatchNormalization", "inbound_nodes": [[["conv2d_7", 0, 0, {}]]]}, {"name": "leaky_re_lu_7", "config": {"name": "leaky_re_lu_7", "trainable": true, "alpha": 0.10000000149011612}, "class_name": "LeakyReLU", "inbound_nodes": [[["batch_normalization_7", 0, 0, {}]]]}, {"name": "add_2", "config": {"name": "add_2", "trainable": true}, "class_name": "Add", "inbound_nodes": [[["leaky_re_lu_5", 0, 0, {}], ["leaky_re_lu_7", 0, 0, {}]]]}, {"name": "conv2d_8", "config": {"name": "conv2d_8", "filters": 64, "bias_constraint": null, "kernel_constraint": null, "trainable": true, "kernel_regularizer": {"config": {"l1": 0.0, "l2": 0.0005000000237487257}, "class_name": "L1L2"}, "strides": [1, 1], "dilation_rate": [1, 1], "activation": "linear", "activity_regularizer": null, "kernel_size": [1, 1], "kernel_initializer": {"config": {"seed": null, "distribution": "uniform", "mode": "fan_avg", "scale": 1.0}, "class_name": "VarianceScaling"}, "use_bias": false, "padding": "same", "bias_initializer": {"config": {}, "class_name": "Zeros"}, "data_format": "channels_last", "bias_regularizer": null}, "class_name": "Conv2D", "inbound_nodes": [[["add_2", 0, 0, {}]]]}, {"name": "batch_normalization_8", "config": {"name": "batch_normalization_8", "beta_regularizer": null, "moving_variance_initializer": {"config": {}, "class_name": "Ones"}, "scale": true, "gamma_initializer": {"config": {}, "class_name": "Ones"}, "trainable": true, "gamma_regularizer": null, "gamma_constraint": null, "moving_mean_initializer": {"config": {}, "class_name": "Zeros"}, "axis": -1, "epsilon": 0.001, "beta_initializer": {"config": {}, "class_name": "Zeros"}, "center": true, "momentum": 0.99, "beta_constraint": null}, "class_name": "BatchNormalization", "inbound_nodes": [[["conv2d_8", 0, 0, {}]]]}, {"name": "leaky_re_lu_8", "config": {"name": "leaky_re_lu_8", "trainable": true, "alpha": 0.10000000149011612}, "class_name": "LeakyReLU", "inbound_nodes": [[["batch_normalization_8", 0, 0, {}]]]}, {"name": "conv2d_9", "config": {"name": "conv2d_9", "filters": 128, "bias_constraint": null, "kernel_constraint": null, "trainable": true, "kernel_regularizer": {"config": {"l1": 0.0, "l2": 0.0005000000237487257}, "class_name": "L1L2"}, "strides": [1, 1], "dilation_rate": [1, 1], "activation": "linear", "activity_regularizer": null, "kernel_size": [3, 3], "kernel_initializer": {"config": {"seed": null, "distribution": "uniform", "mode": "fan_avg", "scale": 1.0}, "class_name": "VarianceScaling"}, "use_bias": false, "padding": "same", "bias_initializer": {"config": {}, "class_name": "Zeros"}, "data_format": "channels_last", "bias_regularizer": null}, "class_name": "Conv2D", "inbound_nodes": [[["leaky_re_lu_8", 0, 0, {}]]]}, {"name": "batch_normalization_9", "config": {"name": "batch_normalization_9", "beta_regularizer": null, "moving_variance_initializer": {"config": {}, "class_name": "Ones"}, "scale": true, "gamma_initializer": {"config": {}, "class_name": "Ones"}, "trainable": true, "gamma_regularizer": null, "gamma_constraint": null, "moving_mean_initializer": {"config": {}, "class_name": "Zeros"}, "axis": -1, "epsilon": 0.001, "beta_initializer": {"config": {}, "class_name": "Zeros"}, "center": true, "momentum": 0.99, "beta_constraint": null}, "class_name": "BatchNormalization", "inbound_nodes": [[["conv2d_9", 0, 0, {}]]]}, {"name": "leaky_re_lu_9", "config": {"name": "leaky_re_lu_9", "trainable": true, "alpha": 0.10000000149011612}, "class_name": "LeakyReLU", "inbound_nodes": [[["batch_normalization_9", 0, 0, {}]]]}, {"name": "add_3", "config": {"name": "add_3", "trainable": true}, "class_name": "Add", "inbound_nodes": [[["add_2", 0, 0, {}], ["leaky_re_lu_9", 0, 0, {}]]]}, {"name": "zero_padding2d_3", "config": {"name": "zero_padding2d_3", "trainable": true, "data_format": "channels_last", "padding": [[1, 0], [1, 0]]}, "class_name": "ZeroPadding2D", "inbound_nodes": [[["add_3", 0, 0, {}]]]}, {"name": "conv2d_10", "config": {"name": "conv2d_10", "filters": 256, "bias_constraint": null, "kernel_constraint": null, "trainable": true, "kernel_regularizer": {"config": {"l1": 0.0, "l2": 0.0005000000237487257}, "class_name": "L1L2"}, "strides": [2, 2], "dilation_rate": [1, 1], "activation": "linear", "activity_regularizer": null, "kernel_size": [3, 3], "kernel_initializer": {"config": {"seed": null, "distribution": "uniform", "mode": "fan_avg", "scale": 1.0}, "class_name": "VarianceScaling"}, "use_bias": false, "padding": "valid", "bias_initializer": {"config": {}, "class_name": "Zeros"}, "data_format": "channels_last", "bias_regularizer": null}, "class_name": "Conv2D", "inbound_nodes": [[["zero_padding2d_3", 0, 0, {}]]]}, {"name": "batch_normalization_10", "config": {"name": "batch_normalization_10", "beta_regularizer": null, "moving_variance_initializer": {"config": {}, "class_name": "Ones"}, "scale": true, "gamma_initializer": {"config": {}, "class_name": "Ones"}, "trainable": true, "gamma_regularizer": null, "gamma_constraint": null, "moving_mean_initializer": {"config": {}, "class_name": "Zeros"}, "axis": -1, "epsilon": 0.001, "beta_initializer": {"config": {}, "class_name": "Zeros"}, "center": true, "momentum": 0.99, "beta_constraint": null}, "class_name": "BatchNormalization", "inbound_nodes": [[["conv2d_10", 0, 0, {}]]]}, {"name": "leaky_re_lu_10", "config": {"name": "leaky_re_lu_10", "trainable": true, "alpha": 0.10000000149011612}, "class_name": "LeakyReLU", "inbound_nodes": [[["batch_normalization_10", 0, 0, {}]]]}, {"name": "conv2d_11", "config": {"name": "conv2d_11", "filters": 128, "bias_constraint": null, "kernel_constraint": null, "trainable": true, "kernel_regularizer": {"config": {"l1": 0.0, "l2": 0.0005000000237487257}, "class_name": "L1L2"}, "strides": [1, 1], "dilation_rate": [1, 1], "activation": "linear", "activity_regularizer": null, "kernel_size": [1, 1], "kernel_initializer": {"config": {"seed": null, "distribution": "uniform", "mode": "fan_avg", "scale": 1.0}, "class_name": "VarianceScaling"}, "use_bias": false, "padding": "same", "bias_initializer": {"config": {}, "class_name": "Zeros"}, "data_format": "channels_last", "bias_regularizer": null}, "class_name": "Conv2D", "inbound_nodes": [[["leaky_re_lu_10", 0, 0, {}]]]}, {"name": "batch_normalization_11", "config": {"name": "batch_normalization_11", "beta_regularizer": null, "moving_variance_initializer": {"config": {}, "class_name": "Ones"}, "scale": true, "gamma_initializer": {"config": {}, "class_name": "Ones"}, "trainable": true, "gamma_regularizer": null, "gamma_constraint": null, "moving_mean_initializer": {"config": {}, "class_name": "Zeros"}, "axis": -1, "epsilon": 0.001, "beta_initializer": {"config": {}, "class_name": "Zeros"}, "center": true, "momentum": 0.99, "beta_constraint": null}, "class_name": "BatchNormalization", "inbound_nodes": [[["conv2d_11", 0, 0, {}]]]}, {"name": "leaky_re_lu_11", "config": {"name": "leaky_re_lu_11", "trainable": true, "alpha": 0.10000000149011612}, "class_name": "LeakyReLU", "inbound_nodes": [[["batch_normalization_11", 0, 0, {}]]]}, {"name": "conv2d_12", "config": {"name": "conv2d_12", "filters": 256, "bias_constraint": null, "kernel_constraint": null, "trainable": true, "kernel_regularizer": {"config": {"l1": 0.0, "l2": 0.0005000000237487257}, "class_name": "L1L2"}, "strides": [1, 1], "dilation_rate": [1, 1], "activation": "linear", "activity_regularizer": null, "kernel_size": [3, 3], "kernel_initializer": {"config": {"seed": null, "distribution": "uniform", "mode": "fan_avg", "scale": 1.0}, "class_name": "VarianceScaling"}, "use_bias": false, "padding": "same", "bias_initializer": {"config": {}, "class_name": "Zeros"}, "data_format": "channels_last", "bias_regularizer": null}, "class_name": "Conv2D", "inbound_nodes": [[["leaky_re_lu_11", 0, 0, {}]]]}, {"name": "batch_normalization_12", "config": {"name": "batch_normalization_12", "beta_regularizer": null, "moving_variance_initializer": {"config": {}, "class_name": "Ones"}, "scale": true, "gamma_initializer": {"config": {}, "class_name": "Ones"}, "trainable": true, "gamma_regularizer": null, "gamma_constraint": null, "moving_mean_initializer": {"config": {}, "class_name": "Zeros"}, "axis": -1, "epsilon": 0.001, "beta_initializer": {"config": {}, "class_name": "Zeros"}, "center": true, "momentum": 0.99, "beta_constraint": null}, "class_name": "BatchNormalization", "inbound_nodes": [[["conv2d_12", 0, 0, {}]]]}, {"name": "leaky_re_lu_12", "config": {"name": "leaky_re_lu_12", "trainable": true, "alpha": 0.10000000149011612}, "class_name": "LeakyReLU", "inbound_nodes": [[["batch_normalization_12", 0, 0, {}]]]}, {"name": "add_4", "config": {"name": "add_4", "trainable": true}, "class_name": "Add", "inbound_nodes": [[["leaky_re_lu_10", 0, 0, {}], ["leaky_re_lu_12", 0, 0, {}]]]}, {"name": "conv2d_13", "config": {"name": "conv2d_13", "filters": 128, "bias_constraint": null, "kernel_constraint": null, "trainable": true, "kernel_regularizer": {"config": {"l1": 0.0, "l2": 0.0005000000237487257}, "class_name": "L1L2"}, "strides": [1, 1], "dilation_rate": [1, 1], "activation": "linear", "activity_regularizer": null, "kernel_size": [1, 1], "kernel_initializer": {"config": {"seed": null, "distribution": "uniform", "mode": "fan_avg", "scale": 1.0}, "class_name": "VarianceScaling"}, "use_bias": false, "padding": "same", "bias_initializer": {"config": {}, "class_name": "Zeros"}, "data_format": "channels_last", "bias_regularizer": null}, "class_name": "Conv2D", "inbound_nodes": [[["add_4", 0, 0, {}]]]}, {"name": "batch_normalization_13", "config": {"name": "batch_normalization_13", "beta_regularizer": null, "moving_variance_initializer": {"config": {}, "class_name": "Ones"}, "scale": true, "gamma_initializer": {"config": {}, "class_name": "Ones"}, "trainable": true, "gamma_regularizer": null, "gamma_constraint": null, "moving_mean_initializer": {"config": {}, "class_name": "Zeros"}, "axis": -1, "epsilon": 0.001, "beta_initializer": {"config": {}, "class_name": "Zeros"}, "center": true, "momentum": 0.99, "beta_constraint": null}, "class_name": "BatchNormalization", "inbound_nodes": [[["conv2d_13", 0, 0, {}]]]}, {"name": "leaky_re_lu_13", "config": {"name": "leaky_re_lu_13", "trainable": true, "alpha": 0.10000000149011612}, "class_name": "LeakyReLU", "inbound_nodes": [[["batch_normalization_13", 0, 0, {}]]]}, {"name": "conv2d_14", "config": {"name": "conv2d_14", "filters": 256, "bias_constraint": null, "kernel_constraint": null, "trainable": true, "kernel_regularizer": {"config": {"l1": 0.0, "l2": 0.0005000000237487257}, "class_name": "L1L2"}, "strides": [1, 1], "dilation_rate": [1, 1], "activation": "linear", "activity_regularizer": null, "kernel_size": [3, 3], "kernel_initializer": {"config": {"seed": null, "distribution": "uniform", "mode": "fan_avg", "scale": 1.0}, "class_name": "VarianceScaling"}, "use_bias": false, "padding": "same", "bias_initializer": {"config": {}, "class_name": "Zeros"}, "data_format": "channels_last", "bias_regularizer": null}, "class_name": "Conv2D", "inbound_nodes": [[["leaky_re_lu_13", 0, 0, {}]]]}, {"name": "batch_normalization_14", "config": {"name": "batch_normalization_14", "beta_regularizer": null, "moving_variance_initializer": {"config": {}, "class_name": "Ones"}, "scale": true, "gamma_initializer": {"config": {}, "class_name": "Ones"}, "trainable": true, "gamma_regularizer": null, "gamma_constraint": null, "moving_mean_initializer": {"config": {}, "class_name": "Zeros"}, "axis": -1, "epsilon": 0.001, "beta_initializer": {"config": {}, "class_name": "Zeros"}, "center": true, "momentum": 0.99, "beta_constraint": null}, "class_name": "BatchNormalization", "inbound_nodes": [[["conv2d_14", 0, 0, {}]]]}, {"name": "leaky_re_lu_14", "config": {"name": "leaky_re_lu_14", "trainable": true, "alpha": 0.10000000149011612}, "class_name": "LeakyReLU", "inbound_nodes": [[["batch_normalization_14", 0, 0, {}]]]}, {"name": "add_5", "config": {"name": "add_5", "trainable": true}, "class_name": "Add", "inbound_nodes": [[["add_4", 0, 0, {}], ["leaky_re_lu_14", 0, 0, {}]]]}, {"name": "conv2d_15", "config": {"name": "conv2d_15", "filters": 128, "bias_constraint": null, "kernel_constraint": null, "trainable": true, "kernel_regularizer": {"config": {"l1": 0.0, "l2": 0.0005000000237487257}, "class_name": "L1L2"}, "strides": [1, 1], "dilation_rate": [1, 1], "activation": "linear", "activity_regularizer": null, "kernel_size": [1, 1], "kernel_initializer": {"config": {"seed": null, "distribution": "uniform", "mode": "fan_avg", "scale": 1.0}, "class_name": "VarianceScaling"}, "use_bias": false, "padding": "same", "bias_initializer": {"config": {}, "class_name": "Zeros"}, "data_format": "channels_last", "bias_regularizer": null}, "class_name": "Conv2D", "inbound_nodes": [[["add_5", 0, 0, {}]]]}, {"name": "batch_normalization_15", "config": {"name": "batch_normalization_15", "beta_regularizer": null, "moving_variance_initializer": {"config": {}, "class_name": "Ones"}, "scale": true, "gamma_initializer": {"config": {}, "class_name": "Ones"}, "trainable": true, "gamma_regularizer": null, "gamma_constraint": null, "moving_mean_initializer": {"config": {}, "class_name": "Zeros"}, "axis": -1, "epsilon": 0.001, "beta_initializer": {"config": {}, "class_name": "Zeros"}, "center": true, "momentum": 0.99, "beta_constraint": null}, "class_name": "BatchNormalization", "inbound_nodes": [[["conv2d_15", 0, 0, {}]]]}, {"name": "leaky_re_lu_15", "config": {"name": "leaky_re_lu_15", "trainable": true, "alpha": 0.10000000149011612}, "class_name": "LeakyReLU", "inbound_nodes": [[["batch_normalization_15", 0, 0, {}]]]}, {"name": "conv2d_16", "config": {"name": "conv2d_16", "filters": 256, "bias_constraint": null, "kernel_constraint": null, "trainable": true, "kernel_regularizer": {"config": {"l1": 0.0, "l2": 0.0005000000237487257}, "class_name": "L1L2"}, "strides": [1, 1], "dilation_rate": [1, 1], "activation": "linear", "activity_regularizer": null, "kernel_size": [3, 3], "kernel_initializer": {"config": {"seed": null, "distribution": "uniform", "mode": "fan_avg", "scale": 1.0}, "class_name": "VarianceScaling"}, "use_bias": false, "padding": "same", "bias_initializer": {"config": {}, "class_name": "Zeros"}, "data_format": "channels_last", "bias_regularizer": null}, "class_name": "Conv2D", "inbound_nodes": [[["leaky_re_lu_15", 0, 0, {}]]]}, {"name": "batch_normalization_16", "config": {"name": "batch_normalization_16", "beta_regularizer": null, "moving_variance_initializer": {"config": {}, "class_name": "Ones"}, "scale": true, "gamma_initializer": {"config": {}, "class_name": "Ones"}, "trainable": true, "gamma_regularizer": null, "gamma_constraint": null, "moving_mean_initializer": {"config": {}, "class_name": "Zeros"}, "axis": -1, "epsilon": 0.001, "beta_initializer": {"config": {}, "class_name": "Zeros"}, "center": true, "momentum": 0.99, "beta_constraint": null}, "class_name": "BatchNormalization", "inbound_nodes": [[["conv2d_16", 0, 0, {}]]]}, {"name": "leaky_re_lu_16", "config": {"name": "leaky_re_lu_16", "trainable": true, "alpha": 0.10000000149011612}, "class_name": "LeakyReLU", "inbound_nodes": [[["batch_normalization_16", 0, 0, {}]]]}, {"name": "add_6", "config": {"name": "add_6", "trainable": true}, "class_name": "Add", "inbound_nodes": [[["add_5", 0, 0, {}], ["leaky_re_lu_16", 0, 0, {}]]]}, {"name": "conv2d_17", "config": {"name": "conv2d_17", "filters": 128, "bias_constraint": null, "kernel_constraint": null, "trainable": true, "kernel_regularizer": {"config": {"l1": 0.0, "l2": 0.0005000000237487257}, "class_name": "L1L2"}, "strides": [1, 1], "dilation_rate": [1, 1], "activation": "linear", "activity_regularizer": null, "kernel_size": [1, 1], "kernel_initializer": {"config": {"seed": null, "distribution": "uniform", "mode": "fan_avg", "scale": 1.0}, "class_name": "VarianceScaling"}, "use_bias": false, "padding": "same", "bias_initializer": {"config": {}, "class_name": "Zeros"}, "data_format": "channels_last", "bias_regularizer": null}, "class_name": "Conv2D", "inbound_nodes": [[["add_6", 0, 0, {}]]]}, {"name": "batch_normalization_17", "config": {"name": "batch_normalization_17", "beta_regularizer": null, "moving_variance_initializer": {"config": {}, "class_name": "Ones"}, "scale": true, "gamma_initializer": {"config": {}, "class_name": "Ones"}, "trainable": true, "gamma_regularizer": null, "gamma_constraint": null, "moving_mean_initializer": {"config": {}, "class_name": "Zeros"}, "axis": -1, "epsilon": 0.001, "beta_initializer": {"config": {}, "class_name": "Zeros"}, "center": true, "momentum": 0.99, "beta_constraint": null}, "class_name": "BatchNormalization", "inbound_nodes": [[["conv2d_17", 0, 0, {}]]]}, {"name": "leaky_re_lu_17", "config": {"name": "leaky_re_lu_17", "trainable": true, "alpha": 0.10000000149011612}, "class_name": "LeakyReLU", "inbound_nodes": [[["batch_normalization_17", 0, 0, {}]]]}, {"name": "conv2d_18", "config": {"name": "conv2d_18", "filters": 256, "bias_constraint": null, "kernel_constraint": null, "trainable": true, "kernel_regularizer": {"config": {"l1": 0.0, "l2": 0.0005000000237487257}, "class_name": "L1L2"}, "strides": [1, 1], "dilation_rate": [1, 1], "activation": "linear", "activity_regularizer": null, "kernel_size": [3, 3], "kernel_initializer": {"config": {"seed": null, "distribution": "uniform", "mode": "fan_avg", "scale": 1.0}, "class_name": "VarianceScaling"}, "use_bias": false, "padding": "same", "bias_initializer": {"config": {}, "class_name": "Zeros"}, "data_format": "channels_last", "bias_regularizer": null}, "class_name": "Conv2D", "inbound_nodes": [[["leaky_re_lu_17", 0, 0, {}]]]}, {"name": "batch_normalization_18", "config": {"name": "batch_normalization_18", "beta_regularizer": null, "moving_variance_initializer": {"config": {}, "class_name": "Ones"}, "scale": true, "gamma_initializer": {"config": {}, "class_name": "Ones"}, "trainable": true, "gamma_regularizer": null, "gamma_constraint": null, "moving_mean_initializer": {"config": {}, "class_name": "Zeros"}, "axis": -1, "epsilon": 0.001, "beta_initializer": {"config": {}, "class_name": "Zeros"}, "center": true, "momentum": 0.99, "beta_constraint": null}, "class_name": "BatchNormalization", "inbound_nodes": [[["conv2d_18", 0, 0, {}]]]}, {"name": "leaky_re_lu_18", "config": {"name": "leaky_re_lu_18", "trainable": true, "alpha": 0.10000000149011612}, "class_name": "LeakyReLU", "inbound_nodes": [[["batch_normalization_18", 0, 0, {}]]]}, {"name": "add_7", "config": {"name": "add_7", "trainable": true}, "class_name": "Add", "inbound_nodes": [[["add_6", 0, 0, {}], ["leaky_re_lu_18", 0, 0, {}]]]}, {"name": "conv2d_19", "config": {"name": "conv2d_19", "filters": 128, "bias_constraint": null, "kernel_constraint": null, "trainable": true, "kernel_regularizer": {"config": {"l1": 0.0, "l2": 0.0005000000237487257}, "class_name": "L1L2"}, "strides": [1, 1], "dilation_rate": [1, 1], "activation": "linear", "activity_regularizer": null, "kernel_size": [1, 1], "kernel_initializer": {"config": {"seed": null, "distribution": "uniform", "mode": "fan_avg", "scale": 1.0}, "class_name": "VarianceScaling"}, "use_bias": false, "padding": "same", "bias_initializer": {"config": {}, "class_name": "Zeros"}, "data_format": "channels_last", "bias_regularizer": null}, "class_name": "Conv2D", "inbound_nodes": [[["add_7", 0, 0, {}]]]}, {"name": "batch_normalization_19", "config": {"name": "batch_normalization_19", "beta_regularizer": null, "moving_variance_initializer": {"config": {}, "class_name": "Ones"}, "scale": true, "gamma_initializer": {"config": {}, "class_name": "Ones"}, "trainable": true, "gamma_regularizer": null, "gamma_constraint": null, "moving_mean_initializer": {"config": {}, "class_name": "Zeros"}, "axis": -1, "epsilon": 0.001, "beta_initializer": {"config": {}, "class_name": "Zeros"}, "center": true, "momentum": 0.99, "beta_constraint": null}, "class_name": "BatchNormalization", "inbound_nodes": [[["conv2d_19", 0, 0, {}]]]}, {"name": "leaky_re_lu_19", "config": {"name": "leaky_re_lu_19", "trainable": true, "alpha": 0.10000000149011612}, "class_name": "LeakyReLU", "inbound_nodes": [[["batch_normalization_19", 0, 0, {}]]]}, {"name": "conv2d_20", "config": {"name": "conv2d_20", "filters": 256, "bias_constraint": null, "kernel_constraint": null, "trainable": true, "kernel_regularizer": {"config": {"l1": 0.0, "l2": 0.0005000000237487257}, "class_name": "L1L2"}, "strides": [1, 1], "dilation_rate": [1, 1], "activation": "linear", "activity_regularizer": null, "kernel_size": [3, 3], "kernel_initializer": {"config": {"seed": null, "distribution": "uniform", "mode": "fan_avg", "scale": 1.0}, "class_name": "VarianceScaling"}, "use_bias": false, "padding": "same", "bias_initializer": {"config": {}, "class_name": "Zeros"}, "data_format": "channels_last", "bias_regularizer": null}, "class_name": "Conv2D", "inbound_nodes": [[["leaky_re_lu_19", 0, 0, {}]]]}, {"name": "batch_normalization_20", "config": {"name": "batch_normalization_20", "beta_regularizer": null, "moving_variance_initializer": {"config": {}, "class_name": "Ones"}, "scale": true, "gamma_initializer": {"config": {}, "class_name": "Ones"}, "trainable": true, "gamma_regularizer": null, "gamma_constraint": null, "moving_mean_initializer": {"config": {}, "class_name": "Zeros"}, "axis": -1, "epsilon": 0.001, "beta_initializer": {"config": {}, "class_name": "Zeros"}, "center": true, "momentum": 0.99, "beta_constraint": null}, "class_name": "BatchNormalization", "inbound_nodes": [[["conv2d_20", 0, 0, {}]]]}, {"name": "leaky_re_lu_20", "config": {"name": "leaky_re_lu_20", "trainable": true, "alpha": 0.10000000149011612}, "class_name": "LeakyReLU", "inbound_nodes": [[["batch_normalization_20", 0, 0, {}]]]}, {"name": "add_8", "config": {"name": "add_8", "trainable": true}, "class_name": "Add", "inbound_nodes": [[["add_7", 0, 0, {}], ["leaky_re_lu_20", 0, 0, {}]]]}, {"name": "conv2d_21", "config": {"name": "conv2d_21", "filters": 128, "bias_constraint": null, "kernel_constraint": null, "trainable": true, "kernel_regularizer": {"config": {"l1": 0.0, "l2": 0.0005000000237487257}, "class_name": "L1L2"}, "strides": [1, 1], "dilation_rate": [1, 1], "activation": "linear", "activity_regularizer": null, "kernel_size": [1, 1], "kernel_initializer": {"config": {"seed": null, "distribution": "uniform", "mode": "fan_avg", "scale": 1.0}, "class_name": "VarianceScaling"}, "use_bias": false, "padding": "same", "bias_initializer": {"config": {}, "class_name": "Zeros"}, "data_format": "channels_last", "bias_regularizer": null}, "class_name": "Conv2D", "inbound_nodes": [[["add_8", 0, 0, {}]]]}, {"name": "batch_normalization_21", "config": {"name": "batch_normalization_21", "beta_regularizer": null, "moving_variance_initializer": {"config": {}, "class_name": "Ones"}, "scale": true, "gamma_initializer": {"config": {}, "class_name": "Ones"}, "trainable": true, "gamma_regularizer": null, "gamma_constraint": null, "moving_mean_initializer": {"config": {}, "class_name": "Zeros"}, "axis": -1, "epsilon": 0.001, "beta_initializer": {"config": {}, "class_name": "Zeros"}, "center": true, "momentum": 0.99, "beta_constraint": null}, "class_name": "BatchNormalization", "inbound_nodes": [[["conv2d_21", 0, 0, {}]]]}, {"name": "leaky_re_lu_21", "config": {"name": "leaky_re_lu_21", "trainable": true, "alpha": 0.10000000149011612}, "class_name": "LeakyReLU", "inbound_nodes": [[["batch_normalization_21", 0, 0, {}]]]}, {"name": "conv2d_22", "config": {"name": "conv2d_22", "filters": 256, "bias_constraint": null, "kernel_constraint": null, "trainable": true, "kernel_regularizer": {"config": {"l1": 0.0, "l2": 0.0005000000237487257}, "class_name": "L1L2"}, "strides": [1, 1], "dilation_rate": [1, 1], "activation": "linear", "activity_regularizer": null, "kernel_size": [3, 3], "kernel_initializer": {"config": {"seed": null, "distribution": "uniform", "mode": "fan_avg", "scale": 1.0}, "class_name": "VarianceScaling"}, "use_bias": false, "padding": "same", "bias_initializer": {"config": {}, "class_name": "Zeros"}, "data_format": "channels_last", "bias_regularizer": null}, "class_name": "Conv2D", "inbound_nodes": [[["leaky_re_lu_21", 0, 0, {}]]]}, {"name": "batch_normalization_22", "config": {"name": "batch_normalization_22", "beta_regularizer": null, "moving_variance_initializer": {"config": {}, "class_name": "Ones"}, "scale": true, "gamma_initializer": {"config": {}, "class_name": "Ones"}, "trainable": true, "gamma_regularizer": null, "gamma_constraint": null, "moving_mean_initializer": {"config": {}, "class_name": "Zeros"}, "axis": -1, "epsilon": 0.001, "beta_initializer": {"config": {}, "class_name": "Zeros"}, "center": true, "momentum": 0.99, "beta_constraint": null}, "class_name": "BatchNormalization", "inbound_nodes": [[["conv2d_22", 0, 0, {}]]]}, {"name": "leaky_re_lu_22", "config": {"name": "leaky_re_lu_22", "trainable": true, "alpha": 0.10000000149011612}, "class_name": "LeakyReLU", "inbound_nodes": [[["batch_normalization_22", 0, 0, {}]]]}, {"name": "add_9", "config": {"name": "add_9", "trainable": true}, "class_name": "Add", "inbound_nodes": [[["add_8", 0, 0, {}], ["leaky_re_lu_22", 0, 0, {}]]]}, {"name": "conv2d_23", "config": {"name": "conv2d_23", "filters": 128, "bias_constraint": null, "kernel_constraint": null, "trainable": true, "kernel_regularizer": {"config": {"l1": 0.0, "l2": 0.0005000000237487257}, "class_name": "L1L2"}, "strides": [1, 1], "dilation_rate": [1, 1], "activation": "linear", "activity_regularizer": null, "kernel_size": [1, 1], "kernel_initializer": {"config": {"seed": null, "distribution": "uniform", "mode": "fan_avg", "scale": 1.0}, "class_name": "VarianceScaling"}, "use_bias": false, "padding": "same", "bias_initializer": {"config": {}, "class_name": "Zeros"}, "data_format": "channels_last", "bias_regularizer": null}, "class_name": "Conv2D", "inbound_nodes": [[["add_9", 0, 0, {}]]]}, {"name": "batch_normalization_23", "config": {"name": "batch_normalization_23", "beta_regularizer": null, "moving_variance_initializer": {"config": {}, "class_name": "Ones"}, "scale": true, "gamma_initializer": {"config": {}, "class_name": "Ones"}, "trainable": true, "gamma_regularizer": null, "gamma_constraint": null, "moving_mean_initializer": {"config": {}, "class_name": "Zeros"}, "axis": -1, "epsilon": 0.001, "beta_initializer": {"config": {}, "class_name": "Zeros"}, "center": true, "momentum": 0.99, "beta_constraint": null}, "class_name": "BatchNormalization", "inbound_nodes": [[["conv2d_23", 0, 0, {}]]]}, {"name": "leaky_re_lu_23", "config": {"name": "leaky_re_lu_23", "trainable": true, "alpha": 0.10000000149011612}, "class_name": "LeakyReLU", "inbound_nodes": [[["batch_normalization_23", 0, 0, {}]]]}, {"name": "conv2d_24", "config": {"name": "conv2d_24", "filters": 256, "bias_constraint": null, "kernel_constraint": null, "trainable": true, "kernel_regularizer": {"config": {"l1": 0.0, "l2": 0.0005000000237487257}, "class_name": "L1L2"}, "strides": [1, 1], "dilation_rate": [1, 1], "activation": "linear", "activity_regularizer": null, "kernel_size": [3, 3], "kernel_initializer": {"config": {"seed": null, "distribution": "uniform", "mode": "fan_avg", "scale": 1.0}, "class_name": "VarianceScaling"}, "use_bias": false, "padding": "same", "bias_initializer": {"config": {}, "class_name": "Zeros"}, "data_format": "channels_last", "bias_regularizer": null}, "class_name": "Conv2D", "inbound_nodes": [[["leaky_re_lu_23", 0, 0, {}]]]}, {"name": "batch_normalization_24", "config": {"name": "batch_normalization_24", "beta_regularizer": null, "moving_variance_initializer": {"config": {}, "class_name": "Ones"}, "scale": true, "gamma_initializer": {"config": {}, "class_name": "Ones"}, "trainable": true, "gamma_regularizer": null, "gamma_constraint": null, "moving_mean_initializer": {"config": {}, "class_name": "Zeros"}, "axis": -1, "epsilon": 0.001, "beta_initializer": {"config": {}, "class_name": "Zeros"}, "center": true, "momentum": 0.99, "beta_constraint": null}, "class_name": "BatchNormalization", "inbound_nodes": [[["conv2d_24", 0, 0, {}]]]}, {"name": "leaky_re_lu_24", "config": {"name": "leaky_re_lu_24", "trainable": true, "alpha": 0.10000000149011612}, "class_name": "LeakyReLU", "inbound_nodes": [[["batch_normalization_24", 0, 0, {}]]]}, {"name": "add_10", "config": {"name": "add_10", "trainable": true}, "class_name": "Add", "inbound_nodes": [[["add_9", 0, 0, {}], ["leaky_re_lu_24", 0, 0, {}]]]}, {"name": "conv2d_25", "config": {"name": "conv2d_25", "filters": 128, "bias_constraint": null, "kernel_constraint": null, "trainable": true, "kernel_regularizer": {"config": {"l1": 0.0, "l2": 0.0005000000237487257}, "class_name": "L1L2"}, "strides": [1, 1], "dilation_rate": [1, 1], "activation": "linear", "activity_regularizer": null, "kernel_size": [1, 1], "kernel_initializer": {"config": {"seed": null, "distribution": "uniform", "mode": "fan_avg", "scale": 1.0}, "class_name": "VarianceScaling"}, "use_bias": false, "padding": "same", "bias_initializer": {"config": {}, "class_name": "Zeros"}, "data_format": "channels_last", "bias_regularizer": null}, "class_name": "Conv2D", "inbound_nodes": [[["add_10", 0, 0, {}]]]}, {"name": "batch_normalization_25", "config": {"name": "batch_normalization_25", "beta_regularizer": null, "moving_variance_initializer": {"config": {}, "class_name": "Ones"}, "scale": true, "gamma_initializer": {"config": {}, "class_name": "Ones"}, "trainable": true, "gamma_regularizer": null, "gamma_constraint": null, "moving_mean_initializer": {"config": {}, "class_name": "Zeros"}, "axis": -1, "epsilon": 0.001, "beta_initializer": {"config": {}, "class_name": "Zeros"}, "center": true, "momentum": 0.99, "beta_constraint": null}, "class_name": "BatchNormalization", "inbound_nodes": [[["conv2d_25", 0, 0, {}]]]}, {"name": "leaky_re_lu_25", "config": {"name": "leaky_re_lu_25", "trainable": true, "alpha": 0.10000000149011612}, "class_name": "LeakyReLU", "inbound_nodes": [[["batch_normalization_25", 0, 0, {}]]]}, {"name": "conv2d_26", "config": {"name": "conv2d_26", "filters": 256, "bias_constraint": null, "kernel_constraint": null, "trainable": true, "kernel_regularizer": {"config": {"l1": 0.0, "l2": 0.0005000000237487257}, "class_name": "L1L2"}, "strides": [1, 1], "dilation_rate": [1, 1], "activation": "linear", "activity_regularizer": null, "kernel_size": [3, 3], "kernel_initializer": {"config": {"seed": null, "distribution": "uniform", "mode": "fan_avg", "scale": 1.0}, "class_name": "VarianceScaling"}, "use_bias": false, "padding": "same", "bias_initializer": {"config": {}, "class_name": "Zeros"}, "data_format": "channels_last", "bias_regularizer": null}, "class_name": "Conv2D", "inbound_nodes": [[["leaky_re_lu_25", 0, 0, {}]]]}, {"name": "batch_normalization_26", "config": {"name": "batch_normalization_26", "beta_regularizer": null, "moving_variance_initializer": {"config": {}, "class_name": "Ones"}, "scale": true, "gamma_initializer": {"config": {}, "class_name": "Ones"}, "trainable": true, "gamma_regularizer": null, "gamma_constraint": null, "moving_mean_initializer": {"config": {}, "class_name": "Zeros"}, "axis": -1, "epsilon": 0.001, "beta_initializer": {"config": {}, "class_name": "Zeros"}, "center": true, "momentum": 0.99, "beta_constraint": null}, "class_name": "BatchNormalization", "inbound_nodes": [[["conv2d_26", 0, 0, {}]]]}, {"name": "leaky_re_lu_26", "config": {"name": "leaky_re_lu_26", "trainable": true, "alpha": 0.10000000149011612}, "class_name": "LeakyReLU", "inbound_nodes": [[["batch_normalization_26", 0, 0, {}]]]}, {"name": "add_11", "config": {"name": "add_11", "trainable": true}, "class_name": "Add", "inbound_nodes": [[["add_10", 0, 0, {}], ["leaky_re_lu_26", 0, 0, {}]]]}, {"name": "zero_padding2d_4", "config": {"name": "zero_padding2d_4", "trainable": true, "data_format": "channels_last", "padding": [[1, 0], [1, 0]]}, "class_name": "ZeroPadding2D", "inbound_nodes": [[["add_11", 0, 0, {}]]]}, {"name": "conv2d_27", "config": {"name": "conv2d_27", "filters": 512, "bias_constraint": null, "kernel_constraint": null, "trainable": true, "kernel_regularizer": {"config": {"l1": 0.0, "l2": 0.0005000000237487257}, "class_name": "L1L2"}, "strides": [2, 2], "dilation_rate": [1, 1], "activation": "linear", "activity_regularizer": null, "kernel_size": [3, 3], "kernel_initializer": {"config": {"seed": null, "distribution": "uniform", "mode": "fan_avg", "scale": 1.0}, "class_name": "VarianceScaling"}, "use_bias": false, "padding": "valid", "bias_initializer": {"config": {}, "class_name": "Zeros"}, "data_format": "channels_last", "bias_regularizer": null}, "class_name": "Conv2D", "inbound_nodes": [[["zero_padding2d_4", 0, 0, {}]]]}, {"name": "batch_normalization_27", "config": {"name": "batch_normalization_27", "beta_regularizer": null, "moving_variance_initializer": {"config": {}, "class_name": "Ones"}, "scale": true, "gamma_initializer": {"config": {}, "class_name": "Ones"}, "trainable": true, "gamma_regularizer": null, "gamma_constraint": null, "moving_mean_initializer": {"config": {}, "class_name": "Zeros"}, "axis": -1, "epsilon": 0.001, "beta_initializer": {"config": {}, "class_name": "Zeros"}, "center": true, "momentum": 0.99, "beta_constraint": null}, "class_name": "BatchNormalization", "inbound_nodes": [[["conv2d_27", 0, 0, {}]]]}, {"name": "leaky_re_lu_27", "config": {"name": "leaky_re_lu_27", "trainable": true, "alpha": 0.10000000149011612}, "class_name": "LeakyReLU", "inbound_nodes": [[["batch_normalization_27", 0, 0, {}]]]}, {"name": "conv2d_28", "config": {"name": "conv2d_28", "filters": 256, "bias_constraint": null, "kernel_constraint": null, "trainable": true, "kernel_regularizer": {"config": {"l1": 0.0, "l2": 0.0005000000237487257}, "class_name": "L1L2"}, "strides": [1, 1], "dilation_rate": [1, 1], "activation": "linear", "activity_regularizer": null, "kernel_size": [1, 1], "kernel_initializer": {"config": {"seed": null, "distribution": "uniform", "mode": "fan_avg", "scale": 1.0}, "class_name": "VarianceScaling"}, "use_bias": false, "padding": "same", "bias_initializer": {"config": {}, "class_name": "Zeros"}, "data_format": "channels_last", "bias_regularizer": null}, "class_name": "Conv2D", "inbound_nodes": [[["leaky_re_lu_27", 0, 0, {}]]]}, {"name": "batch_normalization_28", "config": {"name": "batch_normalization_28", "beta_regularizer": null, "moving_variance_initializer": {"config": {}, "class_name": "Ones"}, "scale": true, "gamma_initializer": {"config": {}, "class_name": "Ones"}, "trainable": true, "gamma_regularizer": null, "gamma_constraint": null, "moving_mean_initializer": {"config": {}, "class_name": "Zeros"}, "axis": -1, "epsilon": 0.001, "beta_initializer": {"config": {}, "class_name": "Zeros"}, "center": true, "momentum": 0.99, "beta_constraint": null}, "class_name": "BatchNormalization", "inbound_nodes": [[["conv2d_28", 0, 0, {}]]]}, {"name": "leaky_re_lu_28", "config": {"name": "leaky_re_lu_28", "trainable": true, "alpha": 0.10000000149011612}, "class_name": "LeakyReLU", "inbound_nodes": [[["batch_normalization_28", 0, 0, {}]]]}, {"name": "conv2d_29", "config": {"name": "conv2d_29", "filters": 512, "bias_constraint": null, "kernel_constraint": null, "trainable": true, "kernel_regularizer": {"config": {"l1": 0.0, "l2": 0.0005000000237487257}, "class_name": "L1L2"}, "strides": [1, 1], "dilation_rate": [1, 1], "activation": "linear", "activity_regularizer": null, "kernel_size": [3, 3], "kernel_initializer": {"config": {"seed": null, "distribution": "uniform", "mode": "fan_avg", "scale": 1.0}, "class_name": "VarianceScaling"}, "use_bias": false, "padding": "same", "bias_initializer": {"config": {}, "class_name": "Zeros"}, "data_format": "channels_last", "bias_regularizer": null}, "class_name": "Conv2D", "inbound_nodes": [[["leaky_re_lu_28", 0, 0, {}]]]}, {"name": "batch_normalization_29", "config": {"name": "batch_normalization_29", "beta_regularizer": null, "moving_variance_initializer": {"config": {}, "class_name": "Ones"}, "scale": true, "gamma_initializer": {"config": {}, "class_name": "Ones"}, "trainable": true, "gamma_regularizer": null, "gamma_constraint": null, "moving_mean_initializer": {"config": {}, "class_name": "Zeros"}, "axis": -1, "epsilon": 0.001, "beta_initializer": {"config": {}, "class_name": "Zeros"}, "center": true, "momentum": 0.99, "beta_constraint": null}, "class_name": "BatchNormalization", "inbound_nodes": [[["conv2d_29", 0, 0, {}]]]}, {"name": "leaky_re_lu_29", "config": {"name": "leaky_re_lu_29", "trainable": true, "alpha": 0.10000000149011612}, "class_name": "LeakyReLU", "inbound_nodes": [[["batch_normalization_29", 0, 0, {}]]]}, {"name": "add_12", "config": {"name": "add_12", "trainable": true}, "class_name": "Add", "inbound_nodes": [[["leaky_re_lu_27", 0, 0, {}], ["leaky_re_lu_29", 0, 0, {}]]]}, {"name": "conv2d_30", "config": {"name": "conv2d_30", "filters": 256, "bias_constraint": null, "kernel_constraint": null, "trainable": true, "kernel_regularizer": {"config": {"l1": 0.0, "l2": 0.0005000000237487257}, "class_name": "L1L2"}, "strides": [1, 1], "dilation_rate": [1, 1], "activation": "linear", "activity_regularizer": null, "kernel_size": [1, 1], "kernel_initializer": {"config": {"seed": null, "distribution": "uniform", "mode": "fan_avg", "scale": 1.0}, "class_name": "VarianceScaling"}, "use_bias": false, "padding": "same", "bias_initializer": {"config": {}, "class_name": "Zeros"}, "data_format": "channels_last", "bias_regularizer": null}, "class_name": "Conv2D", "inbound_nodes": [[["add_12", 0, 0, {}]]]}, {"name": "batch_normalization_30", "config": {"name": "batch_normalization_30", "beta_regularizer": null, "moving_variance_initializer": {"config": {}, "class_name": "Ones"}, "scale": true, "gamma_initializer": {"config": {}, "class_name": "Ones"}, "trainable": true, "gamma_regularizer": null, "gamma_constraint": null, "moving_mean_initializer": {"config": {}, "class_name": "Zeros"}, "axis": -1, "epsilon": 0.001, "beta_initializer": {"config": {}, "class_name": "Zeros"}, "center": true, "momentum": 0.99, "beta_constraint": null}, "class_name": "BatchNormalization", "inbound_nodes": [[["conv2d_30", 0, 0, {}]]]}, {"name": "leaky_re_lu_30", "config": {"name": "leaky_re_lu_30", "trainable": true, "alpha": 0.10000000149011612}, "class_name": "LeakyReLU", "inbound_nodes": [[["batch_normalization_30", 0, 0, {}]]]}, {"name": "conv2d_31", "config": {"name": "conv2d_31", "filters": 512, "bias_constraint": null, "kernel_constraint": null, "trainable": true, "kernel_regularizer": {"config": {"l1": 0.0, "l2": 0.0005000000237487257}, "class_name": "L1L2"}, "strides": [1, 1], "dilation_rate": [1, 1], "activation": "linear", "activity_regularizer": null, "kernel_size": [3, 3], "kernel_initializer": {"config": {"seed": null, "distribution": "uniform", "mode": "fan_avg", "scale": 1.0}, "class_name": "VarianceScaling"}, "use_bias": false, "padding": "same", "bias_initializer": {"config": {}, "class_name": "Zeros"}, "data_format": "channels_last", "bias_regularizer": null}, "class_name": "Conv2D", "inbound_nodes": [[["leaky_re_lu_30", 0, 0, {}]]]}, {"name": "batch_normalization_31", "config": {"name": "batch_normalization_31", "beta_regularizer": null, "moving_variance_initializer": {"config": {}, "class_name": "Ones"}, "scale": true, "gamma_initializer": {"config": {}, "class_name": "Ones"}, "trainable": true, "gamma_regularizer": null, "gamma_constraint": null, "moving_mean_initializer": {"config": {}, "class_name": "Zeros"}, "axis": -1, "epsilon": 0.001, "beta_initializer": {"config": {}, "class_name": "Zeros"}, "center": true, "momentum": 0.99, "beta_constraint": null}, "class_name": "BatchNormalization", "inbound_nodes": [[["conv2d_31", 0, 0, {}]]]}, {"name": "leaky_re_lu_31", "config": {"name": "leaky_re_lu_31", "trainable": true, "alpha": 0.10000000149011612}, "class_name": "LeakyReLU", "inbound_nodes": [[["batch_normalization_31", 0, 0, {}]]]}, {"name": "add_13", "config": {"name": "add_13", "trainable": true}, "class_name": "Add", "inbound_nodes": [[["add_12", 0, 0, {}], ["leaky_re_lu_31", 0, 0, {}]]]}, {"name": "conv2d_32", "config": {"name": "conv2d_32", "filters": 256, "bias_constraint": null, "kernel_constraint": null, "trainable": true, "kernel_regularizer": {"config": {"l1": 0.0, "l2": 0.0005000000237487257}, "class_name": "L1L2"}, "strides": [1, 1], "dilation_rate": [1, 1], "activation": "linear", "activity_regularizer": null, "kernel_size": [1, 1], "kernel_initializer": {"config": {"seed": null, "distribution": "uniform", "mode": "fan_avg", "scale": 1.0}, "class_name": "VarianceScaling"}, "use_bias": false, "padding": "same", "bias_initializer": {"config": {}, "class_name": "Zeros"}, "data_format": "channels_last", "bias_regularizer": null}, "class_name": "Conv2D", "inbound_nodes": [[["add_13", 0, 0, {}]]]}, {"name": "batch_normalization_32", "config": {"name": "batch_normalization_32", "beta_regularizer": null, "moving_variance_initializer": {"config": {}, "class_name": "Ones"}, "scale": true, "gamma_initializer": {"config": {}, "class_name": "Ones"}, "trainable": true, "gamma_regularizer": null, "gamma_constraint": null, "moving_mean_initializer": {"config": {}, "class_name": "Zeros"}, "axis": -1, "epsilon": 0.001, "beta_initializer": {"config": {}, "class_name": "Zeros"}, "center": true, "momentum": 0.99, "beta_constraint": null}, "class_name": "BatchNormalization", "inbound_nodes": [[["conv2d_32", 0, 0, {}]]]}, {"name": "leaky_re_lu_32", "config": {"name": "leaky_re_lu_32", "trainable": true, "alpha": 0.10000000149011612}, "class_name": "LeakyReLU", "inbound_nodes": [[["batch_normalization_32", 0, 0, {}]]]}, {"name": "conv2d_33", "config": {"name": "conv2d_33", "filters": 512, "bias_constraint": null, "kernel_constraint": null, "trainable": true, "kernel_regularizer": {"config": {"l1": 0.0, "l2": 0.0005000000237487257}, "class_name": "L1L2"}, "strides": [1, 1], "dilation_rate": [1, 1], "activation": "linear", "activity_regularizer": null, "kernel_size": [3, 3], "kernel_initializer": {"config": {"seed": null, "distribution": "uniform", "mode": "fan_avg", "scale": 1.0}, "class_name": "VarianceScaling"}, "use_bias": false, "padding": "same", "bias_initializer": {"config": {}, "class_name": "Zeros"}, "data_format": "channels_last", "bias_regularizer": null}, "class_name": "Conv2D", "inbound_nodes": [[["leaky_re_lu_32", 0, 0, {}]]]}, {"name": "batch_normalization_33", "config": {"name": "batch_normalization_33", "beta_regularizer": null, "moving_variance_initializer": {"config": {}, "class_name": "Ones"}, "scale": true, "gamma_initializer": {"config": {}, "class_name": "Ones"}, "trainable": true, "gamma_regularizer": null, "gamma_constraint": null, "moving_mean_initializer": {"config": {}, "class_name": "Zeros"}, "axis": -1, "epsilon": 0.001, "beta_initializer": {"config": {}, "class_name": "Zeros"}, "center": true, "momentum": 0.99, "beta_constraint": null}, "class_name": "BatchNormalization", "inbound_nodes": [[["conv2d_33", 0, 0, {}]]]}, {"name": "leaky_re_lu_33", "config": {"name": "leaky_re_lu_33", "trainable": true, "alpha": 0.10000000149011612}, "class_name": "LeakyReLU", "inbound_nodes": [[["batch_normalization_33", 0, 0, {}]]]}, {"name": "add_14", "config": {"name": "add_14", "trainable": true}, "class_name": "Add", "inbound_nodes": [[["add_13", 0, 0, {}], ["leaky_re_lu_33", 0, 0, {}]]]}, {"name": "conv2d_34", "config": {"name": "conv2d_34", "filters": 256, "bias_constraint": null, "kernel_constraint": null, "trainable": true, "kernel_regularizer": {"config": {"l1": 0.0, "l2": 0.0005000000237487257}, "class_name": "L1L2"}, "strides": [1, 1], "dilation_rate": [1, 1], "activation": "linear", "activity_regularizer": null, "kernel_size": [1, 1], "kernel_initializer": {"config": {"seed": null, "distribution": "uniform", "mode": "fan_avg", "scale": 1.0}, "class_name": "VarianceScaling"}, "use_bias": false, "padding": "same", "bias_initializer": {"config": {}, "class_name": "Zeros"}, "data_format": "channels_last", "bias_regularizer": null}, "class_name": "Conv2D", "inbound_nodes": [[["add_14", 0, 0, {}]]]}, {"name": "batch_normalization_34", "config": {"name": "batch_normalization_34", "beta_regularizer": null, "moving_variance_initializer": {"config": {}, "class_name": "Ones"}, "scale": true, "gamma_initializer": {"config": {}, "class_name": "Ones"}, "trainable": true, "gamma_regularizer": null, "gamma_constraint": null, "moving_mean_initializer": {"config": {}, "class_name": "Zeros"}, "axis": -1, "epsilon": 0.001, "beta_initializer": {"config": {}, "class_name": "Zeros"}, "center": true, "momentum": 0.99, "beta_constraint": null}, "class_name": "BatchNormalization", "inbound_nodes": [[["conv2d_34", 0, 0, {}]]]}, {"name": "leaky_re_lu_34", "config": {"name": "leaky_re_lu_34", "trainable": true, "alpha": 0.10000000149011612}, "class_name": "LeakyReLU", "inbound_nodes": [[["batch_normalization_34", 0, 0, {}]]]}, {"name": "conv2d_35", "config": {"name": "conv2d_35", "filters": 512, "bias_constraint": null, "kernel_constraint": null, "trainable": true, "kernel_regularizer": {"config": {"l1": 0.0, "l2": 0.0005000000237487257}, "class_name": "L1L2"}, "strides": [1, 1], "dilation_rate": [1, 1], "activation": "linear", "activity_regularizer": null, "kernel_size": [3, 3], "kernel_initializer": {"config": {"seed": null, "distribution": "uniform", "mode": "fan_avg", "scale": 1.0}, "class_name": "VarianceScaling"}, "use_bias": false, "padding": "same", "bias_initializer": {"config": {}, "class_name": "Zeros"}, "data_format": "channels_last", "bias_regularizer": null}, "class_name": "Conv2D", "inbound_nodes": [[["leaky_re_lu_34", 0, 0, {}]]]}, {"name": "batch_normalization_35", "config": {"name": "batch_normalization_35", "beta_regularizer": null, "moving_variance_initializer": {"config": {}, "class_name": "Ones"}, "scale": true, "gamma_initializer": {"config": {}, "class_name": "Ones"}, "trainable": true, "gamma_regularizer": null, "gamma_constraint": null, "moving_mean_initializer": {"config": {}, "class_name": "Zeros"}, "axis": -1, "epsilon": 0.001, "beta_initializer": {"config": {}, "class_name": "Zeros"}, "center": true, "momentum": 0.99, "beta_constraint": null}, "class_name": "BatchNormalization", "inbound_nodes": [[["conv2d_35", 0, 0, {}]]]}, {"name": "leaky_re_lu_35", "config": {"name": "leaky_re_lu_35", "trainable": true, "alpha": 0.10000000149011612}, "class_name": "LeakyReLU", "inbound_nodes": [[["batch_normalization_35", 0, 0, {}]]]}, {"name": "add_15", "config": {"name": "add_15", "trainable": true}, "class_name": "Add", "inbound_nodes": [[["add_14", 0, 0, {}], ["leaky_re_lu_35", 0, 0, {}]]]}, {"name": "conv2d_36", "config": {"name": "conv2d_36", "filters": 256, "bias_constraint": null, "kernel_constraint": null, "trainable": true, "kernel_regularizer": {"config": {"l1": 0.0, "l2": 0.0005000000237487257}, "class_name": "L1L2"}, "strides": [1, 1], "dilation_rate": [1, 1], "activation": "linear", "activity_regularizer": null, "kernel_size": [1, 1], "kernel_initializer": {"config": {"seed": null, "distribution": "uniform", "mode": "fan_avg", "scale": 1.0}, "class_name": "VarianceScaling"}, "use_bias": false, "padding": "same", "bias_initializer": {"config": {}, "class_name": "Zeros"}, "data_format": "channels_last", "bias_regularizer": null}, "class_name": "Conv2D", "inbound_nodes": [[["add_15", 0, 0, {}]]]}, {"name": "batch_normalization_36", "config": {"name": "batch_normalization_36", "beta_regularizer": null, "moving_variance_initializer": {"config": {}, "class_name": "Ones"}, "scale": true, "gamma_initializer": {"config": {}, "class_name": "Ones"}, "trainable": true, "gamma_regularizer": null, "gamma_constraint": null, "moving_mean_initializer": {"config": {}, "class_name": "Zeros"}, "axis": -1, "epsilon": 0.001, "beta_initializer": {"config": {}, "class_name": "Zeros"}, "center": true, "momentum": 0.99, "beta_constraint": null}, "class_name": "BatchNormalization", "inbound_nodes": [[["conv2d_36", 0, 0, {}]]]}, {"name": "leaky_re_lu_36", "config": {"name": "leaky_re_lu_36", "trainable": true, "alpha": 0.10000000149011612}, "class_name": "LeakyReLU", "inbound_nodes": [[["batch_normalization_36", 0, 0, {}]]]}, {"name": "conv2d_37", "config": {"name": "conv2d_37", "filters": 512, "bias_constraint": null, "kernel_constraint": null, "trainable": true, "kernel_regularizer": {"config": {"l1": 0.0, "l2": 0.0005000000237487257}, "class_name": "L1L2"}, "strides": [1, 1], "dilation_rate": [1, 1], "activation": "linear", "activity_regularizer": null, "kernel_size": [3, 3], "kernel_initializer": {"config": {"seed": null, "distribution": "uniform", "mode": "fan_avg", "scale": 1.0}, "class_name": "VarianceScaling"}, "use_bias": false, "padding": "same", "bias_initializer": {"config": {}, "class_name": "Zeros"}, "data_format": "channels_last", "bias_regularizer": null}, "class_name": "Conv2D", "inbound_nodes": [[["leaky_re_lu_36", 0, 0, {}]]]}, {"name": "batch_normalization_37", "config": {"name": "batch_normalization_37", "beta_regularizer": null, "moving_variance_initializer": {"config": {}, "class_name": "Ones"}, "scale": true, "gamma_initializer": {"config": {}, "class_name": "Ones"}, "trainable": true, "gamma_regularizer": null, "gamma_constraint": null, "moving_mean_initializer": {"config": {}, "class_name": "Zeros"}, "axis": -1, "epsilon": 0.001, "beta_initializer": {"config": {}, "class_name": "Zeros"}, "center": true, "momentum": 0.99, "beta_constraint": null}, "class_name": "BatchNormalization", "inbound_nodes": [[["conv2d_37", 0, 0, {}]]]}, {"name": "leaky_re_lu_37", "config": {"name": "leaky_re_lu_37", "trainable": true, "alpha": 0.10000000149011612}, "class_name": "LeakyReLU", "inbound_nodes": [[["batch_normalization_37", 0, 0, {}]]]}, {"name": "add_16", "config": {"name": "add_16", "trainable": true}, "class_name": "Add", "inbound_nodes": [[["add_15", 0, 0, {}], ["leaky_re_lu_37", 0, 0, {}]]]}, {"name": "conv2d_38", "config": {"name": "conv2d_38", "filters": 256, "bias_constraint": null, "kernel_constraint": null, "trainable": true, "kernel_regularizer": {"config": {"l1": 0.0, "l2": 0.0005000000237487257}, "class_name": "L1L2"}, "strides": [1, 1], "dilation_rate": [1, 1], "activation": "linear", "activity_regularizer": null, "kernel_size": [1, 1], "kernel_initializer": {"config": {"seed": null, "distribution": "uniform", "mode": "fan_avg", "scale": 1.0}, "class_name": "VarianceScaling"}, "use_bias": false, "padding": "same", "bias_initializer": {"config": {}, "class_name": "Zeros"}, "data_format": "channels_last", "bias_regularizer": null}, "class_name": "Conv2D", "inbound_nodes": [[["add_16", 0, 0, {}]]]}, {"name": "batch_normalization_38", "config": {"name": "batch_normalization_38", "beta_regularizer": null, "moving_variance_initializer": {"config": {}, "class_name": "Ones"}, "scale": true, "gamma_initializer": {"config": {}, "class_name": "Ones"}, "trainable": true, "gamma_regularizer": null, "gamma_constraint": null, "moving_mean_initializer": {"config": {}, "class_name": "Zeros"}, "axis": -1, "epsilon": 0.001, "beta_initializer": {"config": {}, "class_name": "Zeros"}, "center": true, "momentum": 0.99, "beta_constraint": null}, "class_name": "BatchNormalization", "inbound_nodes": [[["conv2d_38", 0, 0, {}]]]}, {"name": "leaky_re_lu_38", "config": {"name": "leaky_re_lu_38", "trainable": true, "alpha": 0.10000000149011612}, "class_name": "LeakyReLU", "inbound_nodes": [[["batch_normalization_38", 0, 0, {}]]]}, {"name": "conv2d_39", "config": {"name": "conv2d_39", "filters": 512, "bias_constraint": null, "kernel_constraint": null, "trainable": true, "kernel_regularizer": {"config": {"l1": 0.0, "l2": 0.0005000000237487257}, "class_name": "L1L2"}, "strides": [1, 1], "dilation_rate": [1, 1], "activation": "linear", "activity_regularizer": null, "kernel_size": [3, 3], "kernel_initializer": {"config": {"seed": null, "distribution": "uniform", "mode": "fan_avg", "scale": 1.0}, "class_name": "VarianceScaling"}, "use_bias": false, "padding": "same", "bias_initializer": {"config": {}, "class_name": "Zeros"}, "data_format": "channels_last", "bias_regularizer": null}, "class_name": "Conv2D", "inbound_nodes": [[["leaky_re_lu_38", 0, 0, {}]]]}, {"name": "batch_normalization_39", "config": {"name": "batch_normalization_39", "beta_regularizer": null, "moving_variance_initializer": {"config": {}, "class_name": "Ones"}, "scale": true, "gamma_initializer": {"config": {}, "class_name": "Ones"}, "trainable": true, "gamma_regularizer": null, "gamma_constraint": null, "moving_mean_initializer": {"config": {}, "class_name": "Zeros"}, "axis": -1, "epsilon": 0.001, "beta_initializer": {"config": {}, "class_name": "Zeros"}, "center": true, "momentum": 0.99, "beta_constraint": null}, "class_name": "BatchNormalization", "inbound_nodes": [[["conv2d_39", 0, 0, {}]]]}, {"name": "leaky_re_lu_39", "config": {"name": "leaky_re_lu_39", "trainable": true, "alpha": 0.10000000149011612}, "class_name": "LeakyReLU", "inbound_nodes": [[["batch_normalization_39", 0, 0, {}]]]}, {"name": "add_17", "config": {"name": "add_17", "trainable": true}, "class_name": "Add", "inbound_nodes": [[["add_16", 0, 0, {}], ["leaky_re_lu_39", 0, 0, {}]]]}, {"name": "conv2d_40", "config": {"name": "conv2d_40", "filters": 256, "bias_constraint": null, "kernel_constraint": null, "trainable": true, "kernel_regularizer": {"config": {"l1": 0.0, "l2": 0.0005000000237487257}, "class_name": "L1L2"}, "strides": [1, 1], "dilation_rate": [1, 1], "activation": "linear", "activity_regularizer": null, "kernel_size": [1, 1], "kernel_initializer": {"config": {"seed": null, "distribution": "uniform", "mode": "fan_avg", "scale": 1.0}, "class_name": "VarianceScaling"}, "use_bias": false, "padding": "same", "bias_initializer": {"config": {}, "class_name": "Zeros"}, "data_format": "channels_last", "bias_regularizer": null}, "class_name": "Conv2D", "inbound_nodes": [[["add_17", 0, 0, {}]]]}, {"name": "batch_normalization_40", "config": {"name": "batch_normalization_40", "beta_regularizer": null, "moving_variance_initializer": {"config": {}, "class_name": "Ones"}, "scale": true, "gamma_initializer": {"config": {}, "class_name": "Ones"}, "trainable": true, "gamma_regularizer": null, "gamma_constraint": null, "moving_mean_initializer": {"config": {}, "class_name": "Zeros"}, "axis": -1, "epsilon": 0.001, "beta_initializer": {"config": {}, "class_name": "Zeros"}, "center": true, "momentum": 0.99, "beta_constraint": null}, "class_name": "BatchNormalization", "inbound_nodes": [[["conv2d_40", 0, 0, {}]]]}, {"name": "leaky_re_lu_40", "config": {"name": "leaky_re_lu_40", "trainable": true, "alpha": 0.10000000149011612}, "class_name": "LeakyReLU", "inbound_nodes": [[["batch_normalization_40", 0, 0, {}]]]}, {"name": "conv2d_41", "config": {"name": "conv2d_41", "filters": 512, "bias_constraint": null, "kernel_constraint": null, "trainable": true, "kernel_regularizer": {"config": {"l1": 0.0, "l2": 0.0005000000237487257}, "class_name": "L1L2"}, "strides": [1, 1], "dilation_rate": [1, 1], "activation": "linear", "activity_regularizer": null, "kernel_size": [3, 3], "kernel_initializer": {"config": {"seed": null, "distribution": "uniform", "mode": "fan_avg", "scale": 1.0}, "class_name": "VarianceScaling"}, "use_bias": false, "padding": "same", "bias_initializer": {"config": {}, "class_name": "Zeros"}, "data_format": "channels_last", "bias_regularizer": null}, "class_name": "Conv2D", "inbound_nodes": [[["leaky_re_lu_40", 0, 0, {}]]]}, {"name": "batch_normalization_41", "config": {"name": "batch_normalization_41", "beta_regularizer": null, "moving_variance_initializer": {"config": {}, "class_name": "Ones"}, "scale": true, "gamma_initializer": {"config": {}, "class_name": "Ones"}, "trainable": true, "gamma_regularizer": null, "gamma_constraint": null, "moving_mean_initializer": {"config": {}, "class_name": "Zeros"}, "axis": -1, "epsilon": 0.001, "beta_initializer": {"config": {}, "class_name": "Zeros"}, "center": true, "momentum": 0.99, "beta_constraint": null}, "class_name": "BatchNormalization", "inbound_nodes": [[["conv2d_41", 0, 0, {}]]]}, {"name": "leaky_re_lu_41", "config": {"name": "leaky_re_lu_41", "trainable": true, "alpha": 0.10000000149011612}, "class_name": "LeakyReLU", "inbound_nodes": [[["batch_normalization_41", 0, 0, {}]]]}, {"name": "add_18", "config": {"name": "add_18", "trainable": true}, "class_name": "Add", "inbound_nodes": [[["add_17", 0, 0, {}], ["leaky_re_lu_41", 0, 0, {}]]]}, {"name": "conv2d_42", "config": {"name": "conv2d_42", "filters": 256, "bias_constraint": null, "kernel_constraint": null, "trainable": true, "kernel_regularizer": {"config": {"l1": 0.0, "l2": 0.0005000000237487257}, "class_name": "L1L2"}, "strides": [1, 1], "dilation_rate": [1, 1], "activation": "linear", "activity_regularizer": null, "kernel_size": [1, 1], "kernel_initializer": {"config": {"seed": null, "distribution": "uniform", "mode": "fan_avg", "scale": 1.0}, "class_name": "VarianceScaling"}, "use_bias": false, "padding": "same", "bias_initializer": {"config": {}, "class_name": "Zeros"}, "data_format": "channels_last", "bias_regularizer": null}, "class_name": "Conv2D", "inbound_nodes": [[["add_18", 0, 0, {}]]]}, {"name": "batch_normalization_42", "config": {"name": "batch_normalization_42", "beta_regularizer": null, "moving_variance_initializer": {"config": {}, "class_name": "Ones"}, "scale": true, "gamma_initializer": {"config": {}, "class_name": "Ones"}, "trainable": true, "gamma_regularizer": null, "gamma_constraint": null, "moving_mean_initializer": {"config": {}, "class_name": "Zeros"}, "axis": -1, "epsilon": 0.001, "beta_initializer": {"config": {}, "class_name": "Zeros"}, "center": true, "momentum": 0.99, "beta_constraint": null}, "class_name": "BatchNormalization", "inbound_nodes": [[["conv2d_42", 0, 0, {}]]]}, {"name": "leaky_re_lu_42", "config": {"name": "leaky_re_lu_42", "trainable": true, "alpha": 0.10000000149011612}, "class_name": "LeakyReLU", "inbound_nodes": [[["batch_normalization_42", 0, 0, {}]]]}, {"name": "conv2d_43", "config": {"name": "conv2d_43", "filters": 512, "bias_constraint": null, "kernel_constraint": null, "trainable": true, "kernel_regularizer": {"config": {"l1": 0.0, "l2": 0.0005000000237487257}, "class_name": "L1L2"}, "strides": [1, 1], "dilation_rate": [1, 1], "activation": "linear", "activity_regularizer": null, "kernel_size": [3, 3], "kernel_initializer": {"config": {"seed": null, "distribution": "uniform", "mode": "fan_avg", "scale": 1.0}, "class_name": "VarianceScaling"}, "use_bias": false, "padding": "same", "bias_initializer": {"config": {}, "class_name": "Zeros"}, "data_format": "channels_last", "bias_regularizer": null}, "class_name": "Conv2D", "inbound_nodes": [[["leaky_re_lu_42", 0, 0, {}]]]}, {"name": "batch_normalization_43", "config": {"name": "batch_normalization_43", "beta_regularizer": null, "moving_variance_initializer": {"config": {}, "class_name": "Ones"}, "scale": true, "gamma_initializer": {"config": {}, "class_name": "Ones"}, "trainable": true, "gamma_regularizer": null, "gamma_constraint": null, "moving_mean_initializer": {"config": {}, "class_name": "Zeros"}, "axis": -1, "epsilon": 0.001, "beta_initializer": {"config": {}, "class_name": "Zeros"}, "center": true, "momentum": 0.99, "beta_constraint": null}, "class_name": "BatchNormalization", "inbound_nodes": [[["conv2d_43", 0, 0, {}]]]}, {"name": "leaky_re_lu_43", "config": {"name": "leaky_re_lu_43", "trainable": true, "alpha": 0.10000000149011612}, "class_name": "LeakyReLU", "inbound_nodes": [[["batch_normalization_43", 0, 0, {}]]]}, {"name": "add_19", "config": {"name": "add_19", "trainable": true}, "class_name": "Add", "inbound_nodes": [[["add_18", 0, 0, {}], ["leaky_re_lu_43", 0, 0, {}]]]}, {"name": "zero_padding2d_5", "config": {"name": "zero_padding2d_5", "trainable": true, "data_format": "channels_last", "padding": [[1, 0], [1, 0]]}, "class_name": "ZeroPadding2D", "inbound_nodes": [[["add_19", 0, 0, {}]]]}, {"name": "conv2d_44", "config": {"name": "conv2d_44", "filters": 1024, "bias_constraint": null, "kernel_constraint": null, "trainable": true, "kernel_regularizer": {"config": {"l1": 0.0, "l2": 0.0005000000237487257}, "class_name": "L1L2"}, "strides": [2, 2], "dilation_rate": [1, 1], "activation": "linear", "activity_regularizer": null, "kernel_size": [3, 3], "kernel_initializer": {"config": {"seed": null, "distribution": "uniform", "mode": "fan_avg", "scale": 1.0}, "class_name": "VarianceScaling"}, "use_bias": false, "padding": "valid", "bias_initializer": {"config": {}, "class_name": "Zeros"}, "data_format": "channels_last", "bias_regularizer": null}, "class_name": "Conv2D", "inbound_nodes": [[["zero_padding2d_5", 0, 0, {}]]]}, {"name": "batch_normalization_44", "config": {"name": "batch_normalization_44", "beta_regularizer": null, "moving_variance_initializer": {"config": {}, "class_name": "Ones"}, "scale": true, "gamma_initializer": {"config": {}, "class_name": "Ones"}, "trainable": true, "gamma_regularizer": null, "gamma_constraint": null, "moving_mean_initializer": {"config": {}, "class_name": "Zeros"}, "axis": -1, "epsilon": 0.001, "beta_initializer": {"config": {}, "class_name": "Zeros"}, "center": true, "momentum": 0.99, "beta_constraint": null}, "class_name": "BatchNormalization", "inbound_nodes": [[["conv2d_44", 0, 0, {}]]]}, {"name": "leaky_re_lu_44", "config": {"name": "leaky_re_lu_44", "trainable": true, "alpha": 0.10000000149011612}, "class_name": "LeakyReLU", "inbound_nodes": [[["batch_normalization_44", 0, 0, {}]]]}, {"name": "conv2d_45", "config": {"name": "conv2d_45", "filters": 512, "bias_constraint": null, "kernel_constraint": null, "trainable": true, "kernel_regularizer": {"config": {"l1": 0.0, "l2": 0.0005000000237487257}, "class_name": "L1L2"}, "strides": [1, 1], "dilation_rate": [1, 1], "activation": "linear", "activity_regularizer": null, "kernel_size": [1, 1], "kernel_initializer": {"config": {"seed": null, "distribution": "uniform", "mode": "fan_avg", "scale": 1.0}, "class_name": "VarianceScaling"}, "use_bias": false, "padding": "same", "bias_initializer": {"config": {}, "class_name": "Zeros"}, "data_format": "channels_last", "bias_regularizer": null}, "class_name": "Conv2D", "inbound_nodes": [[["leaky_re_lu_44", 0, 0, {}]]]}, {"name": "batch_normalization_45", "config": {"name": "batch_normalization_45", "beta_regularizer": null, "moving_variance_initializer": {"config": {}, "class_name": "Ones"}, "scale": true, "gamma_initializer": {"config": {}, "class_name": "Ones"}, "trainable": true, "gamma_regularizer": null, "gamma_constraint": null, "moving_mean_initializer": {"config": {}, "class_name": "Zeros"}, "axis": -1, "epsilon": 0.001, "beta_initializer": {"config": {}, "class_name": "Zeros"}, "center": true, "momentum": 0.99, "beta_constraint": null}, "class_name": "BatchNormalization", "inbound_nodes": [[["conv2d_45", 0, 0, {}]]]}, {"name": "leaky_re_lu_45", "config": {"name": "leaky_re_lu_45", "trainable": true, "alpha": 0.10000000149011612}, "class_name": "LeakyReLU", "inbound_nodes": [[["batch_normalization_45", 0, 0, {}]]]}, {"name": "conv2d_46", "config": {"name": "conv2d_46", "filters": 1024, "bias_constraint": null, "kernel_constraint": null, "trainable": true, "kernel_regularizer": {"config": {"l1": 0.0, "l2": 0.0005000000237487257}, "class_name": "L1L2"}, "strides": [1, 1], "dilation_rate": [1, 1], "activation": "linear", "activity_regularizer": null, "kernel_size": [3, 3], "kernel_initializer": {"config": {"seed": null, "distribution": "uniform", "mode": "fan_avg", "scale": 1.0}, "class_name": "VarianceScaling"}, "use_bias": false, "padding": "same", "bias_initializer": {"config": {}, "class_name": "Zeros"}, "data_format": "channels_last", "bias_regularizer": null}, "class_name": "Conv2D", "inbound_nodes": [[["leaky_re_lu_45", 0, 0, {}]]]}, {"name": "batch_normalization_46", "config": {"name": "batch_normalization_46", "beta_regularizer": null, "moving_variance_initializer": {"config": {}, "class_name": "Ones"}, "scale": true, "gamma_initializer": {"config": {}, "class_name": "Ones"}, "trainable": true, "gamma_regularizer": null, "gamma_constraint": null, "moving_mean_initializer": {"config": {}, "class_name": "Zeros"}, "axis": -1, "epsilon": 0.001, "beta_initializer": {"config": {}, "class_name": "Zeros"}, "center": true, "momentum": 0.99, "beta_constraint": null}, "class_name": "BatchNormalization", "inbound_nodes": [[["conv2d_46", 0, 0, {}]]]}, {"name": "leaky_re_lu_46", "config": {"name": "leaky_re_lu_46", "trainable": true, "alpha": 0.10000000149011612}, "class_name": "LeakyReLU", "inbound_nodes": [[["batch_normalization_46", 0, 0, {}]]]}, {"name": "add_20", "config": {"name": "add_20", "trainable": true}, "class_name": "Add", "inbound_nodes": [[["leaky_re_lu_44", 0, 0, {}], ["leaky_re_lu_46", 0, 0, {}]]]}, {"name": "conv2d_47", "config": {"name": "conv2d_47", "filters": 512, "bias_constraint": null, "kernel_constraint": null, "trainable": true, "kernel_regularizer": {"config": {"l1": 0.0, "l2": 0.0005000000237487257}, "class_name": "L1L2"}, "strides": [1, 1], "dilation_rate": [1, 1], "activation": "linear", "activity_regularizer": null, "kernel_size": [1, 1], "kernel_initializer": {"config": {"seed": null, "distribution": "uniform", "mode": "fan_avg", "scale": 1.0}, "class_name": "VarianceScaling"}, "use_bias": false, "padding": "same", "bias_initializer": {"config": {}, "class_name": "Zeros"}, "data_format": "channels_last", "bias_regularizer": null}, "class_name": "Conv2D", "inbound_nodes": [[["add_20", 0, 0, {}]]]}, {"name": "batch_normalization_47", "config": {"name": "batch_normalization_47", "beta_regularizer": null, "moving_variance_initializer": {"config": {}, "class_name": "Ones"}, "scale": true, "gamma_initializer": {"config": {}, "class_name": "Ones"}, "trainable": true, "gamma_regularizer": null, "gamma_constraint": null, "moving_mean_initializer": {"config": {}, "class_name": "Zeros"}, "axis": -1, "epsilon": 0.001, "beta_initializer": {"config": {}, "class_name": "Zeros"}, "center": true, "momentum": 0.99, "beta_constraint": null}, "class_name": "BatchNormalization", "inbound_nodes": [[["conv2d_47", 0, 0, {}]]]}, {"name": "leaky_re_lu_47", "config": {"name": "leaky_re_lu_47", "trainable": true, "alpha": 0.10000000149011612}, "class_name": "LeakyReLU", "inbound_nodes": [[["batch_normalization_47", 0, 0, {}]]]}, {"name": "conv2d_48", "config": {"name": "conv2d_48", "filters": 1024, "bias_constraint": null, "kernel_constraint": null, "trainable": true, "kernel_regularizer": {"config": {"l1": 0.0, "l2": 0.0005000000237487257}, "class_name": "L1L2"}, "strides": [1, 1], "dilation_rate": [1, 1], "activation": "linear", "activity_regularizer": null, "kernel_size": [3, 3], "kernel_initializer": {"config": {"seed": null, "distribution": "uniform", "mode": "fan_avg", "scale": 1.0}, "class_name": "VarianceScaling"}, "use_bias": false, "padding": "same", "bias_initializer": {"config": {}, "class_name": "Zeros"}, "data_format": "channels_last", "bias_regularizer": null}, "class_name": "Conv2D", "inbound_nodes": [[["leaky_re_lu_47", 0, 0, {}]]]}, {"name": "batch_normalization_48", "config": {"name": "batch_normalization_48", "beta_regularizer": null, "moving_variance_initializer": {"config": {}, "class_name": "Ones"}, "scale": true, "gamma_initializer": {"config": {}, "class_name": "Ones"}, "trainable": true, "gamma_regularizer": null, "gamma_constraint": null, "moving_mean_initializer": {"config": {}, "class_name": "Zeros"}, "axis": -1, "epsilon": 0.001, "beta_initializer": {"config": {}, "class_name": "Zeros"}, "center": true, "momentum": 0.99, "beta_constraint": null}, "class_name": "BatchNormalization", "inbound_nodes": [[["conv2d_48", 0, 0, {}]]]}, {"name": "leaky_re_lu_48", "config": {"name": "leaky_re_lu_48", "trainable": true, "alpha": 0.10000000149011612}, "class_name": "LeakyReLU", "inbound_nodes": [[["batch_normalization_48", 0, 0, {}]]]}, {"name": "add_21", "config": {"name": "add_21", "trainable": true}, "class_name": "Add", "inbound_nodes": [[["add_20", 0, 0, {}], ["leaky_re_lu_48", 0, 0, {}]]]}, {"name": "conv2d_49", "config": {"name": "conv2d_49", "filters": 512, "bias_constraint": null, "kernel_constraint": null, "trainable": true, "kernel_regularizer": {"config": {"l1": 0.0, "l2": 0.0005000000237487257}, "class_name": "L1L2"}, "strides": [1, 1], "dilation_rate": [1, 1], "activation": "linear", "activity_regularizer": null, "kernel_size": [1, 1], "kernel_initializer": {"config": {"seed": null, "distribution": "uniform", "mode": "fan_avg", "scale": 1.0}, "class_name": "VarianceScaling"}, "use_bias": false, "padding": "same", "bias_initializer": {"config": {}, "class_name": "Zeros"}, "data_format": "channels_last", "bias_regularizer": null}, "class_name": "Conv2D", "inbound_nodes": [[["add_21", 0, 0, {}]]]}, {"name": "batch_normalization_49", "config": {"name": "batch_normalization_49", "beta_regularizer": null, "moving_variance_initializer": {"config": {}, "class_name": "Ones"}, "scale": true, "gamma_initializer": {"config": {}, "class_name": "Ones"}, "trainable": true, "gamma_regularizer": null, "gamma_constraint": null, "moving_mean_initializer": {"config": {}, "class_name": "Zeros"}, "axis": -1, "epsilon": 0.001, "beta_initializer": {"config": {}, "class_name": "Zeros"}, "center": true, "momentum": 0.99, "beta_constraint": null}, "class_name": "BatchNormalization", "inbound_nodes": [[["conv2d_49", 0, 0, {}]]]}, {"name": "leaky_re_lu_49", "config": {"name": "leaky_re_lu_49", "trainable": true, "alpha": 0.10000000149011612}, "class_name": "LeakyReLU", "inbound_nodes": [[["batch_normalization_49", 0, 0, {}]]]}, {"name": "conv2d_50", "config": {"name": "conv2d_50", "filters": 1024, "bias_constraint": null, "kernel_constraint": null, "trainable": true, "kernel_regularizer": {"config": {"l1": 0.0, "l2": 0.0005000000237487257}, "class_name": "L1L2"}, "strides": [1, 1], "dilation_rate": [1, 1], "activation": "linear", "activity_regularizer": null, "kernel_size": [3, 3], "kernel_initializer": {"config": {"seed": null, "distribution": "uniform", "mode": "fan_avg", "scale": 1.0}, "class_name": "VarianceScaling"}, "use_bias": false, "padding": "same", "bias_initializer": {"config": {}, "class_name": "Zeros"}, "data_format": "channels_last", "bias_regularizer": null}, "class_name": "Conv2D", "inbound_nodes": [[["leaky_re_lu_49", 0, 0, {}]]]}, {"name": "batch_normalization_50", "config": {"name": "batch_normalization_50", "beta_regularizer": null, "moving_variance_initializer": {"config": {}, "class_name": "Ones"}, "scale": true, "gamma_initializer": {"config": {}, "class_name": "Ones"}, "trainable": true, "gamma_regularizer": null, "gamma_constraint": null, "moving_mean_initializer": {"config": {}, "class_name": "Zeros"}, "axis": -1, "epsilon": 0.001, "beta_initializer": {"config": {}, "class_name": "Zeros"}, "center": true, "momentum": 0.99, "beta_constraint": null}, "class_name": "BatchNormalization", "inbound_nodes": [[["conv2d_50", 0, 0, {}]]]}, {"name": "leaky_re_lu_50", "config": {"name": "leaky_re_lu_50", "trainable": true, "alpha": 0.10000000149011612}, "class_name": "LeakyReLU", "inbound_nodes": [[["batch_normalization_50", 0, 0, {}]]]}, {"name": "add_22", "config": {"name": "add_22", "trainable": true}, "class_name": "Add", "inbound_nodes": [[["add_21", 0, 0, {}], ["leaky_re_lu_50", 0, 0, {}]]]}, {"name": "conv2d_51", "config": {"name": "conv2d_51", "filters": 512, "bias_constraint": null, "kernel_constraint": null, "trainable": true, "kernel_regularizer": {"config": {"l1": 0.0, "l2": 0.0005000000237487257}, "class_name": "L1L2"}, "strides": [1, 1], "dilation_rate": [1, 1], "activation": "linear", "activity_regularizer": null, "kernel_size": [1, 1], "kernel_initializer": {"config": {"seed": null, "distribution": "uniform", "mode": "fan_avg", "scale": 1.0}, "class_name": "VarianceScaling"}, "use_bias": false, "padding": "same", "bias_initializer": {"config": {}, "class_name": "Zeros"}, "data_format": "channels_last", "bias_regularizer": null}, "class_name": "Conv2D", "inbound_nodes": [[["add_22", 0, 0, {}]]]}, {"name": "batch_normalization_51", "config": {"name": "batch_normalization_51", "beta_regularizer": null, "moving_variance_initializer": {"config": {}, "class_name": "Ones"}, "scale": true, "gamma_initializer": {"config": {}, "class_name": "Ones"}, "trainable": true, "gamma_regularizer": null, "gamma_constraint": null, "moving_mean_initializer": {"config": {}, "class_name": "Zeros"}, "axis": -1, "epsilon": 0.001, "beta_initializer": {"config": {}, "class_name": "Zeros"}, "center": true, "momentum": 0.99, "beta_constraint": null}, "class_name": "BatchNormalization", "inbound_nodes": [[["conv2d_51", 0, 0, {}]]]}, {"name": "leaky_re_lu_51", "config": {"name": "leaky_re_lu_51", "trainable": true, "alpha": 0.10000000149011612}, "class_name": "LeakyReLU", "inbound_nodes": [[["batch_normalization_51", 0, 0, {}]]]}, {"name": "conv2d_52", "config": {"name": "conv2d_52", "filters": 1024, "bias_constraint": null, "kernel_constraint": null, "trainable": true, "kernel_regularizer": {"config": {"l1": 0.0, "l2": 0.0005000000237487257}, "class_name": "L1L2"}, "strides": [1, 1], "dilation_rate": [1, 1], "activation": "linear", "activity_regularizer": null, "kernel_size": [3, 3], "kernel_initializer": {"config": {"seed": null, "distribution": "uniform", "mode": "fan_avg", "scale": 1.0}, "class_name": "VarianceScaling"}, "use_bias": false, "padding": "same", "bias_initializer": {"config": {}, "class_name": "Zeros"}, "data_format": "channels_last", "bias_regularizer": null}, "class_name": "Conv2D", "inbound_nodes": [[["leaky_re_lu_51", 0, 0, {}]]]}, {"name": "batch_normalization_52", "config": {"name": "batch_normalization_52", "beta_regularizer": null, "moving_variance_initializer": {"config": {}, "class_name": "Ones"}, "scale": true, "gamma_initializer": {"config": {}, "class_name": "Ones"}, "trainable": true, "gamma_regularizer": null, "gamma_constraint": null, "moving_mean_initializer": {"config": {}, "class_name": "Zeros"}, "axis": -1, "epsilon": 0.001, "beta_initializer": {"config": {}, "class_name": "Zeros"}, "center": true, "momentum": 0.99, "beta_constraint": null}, "class_name": "BatchNormalization", "inbound_nodes": [[["conv2d_52", 0, 0, {}]]]}, {"name": "leaky_re_lu_52", "config": {"name": "leaky_re_lu_52", "trainable": true, "alpha": 0.10000000149011612}, "class_name": "LeakyReLU", "inbound_nodes": [[["batch_normalization_52", 0, 0, {}]]]}, {"name": "add_23", "config": {"name": "add_23", "trainable": true}, "class_name": "Add", "inbound_nodes": [[["add_22", 0, 0, {}], ["leaky_re_lu_52", 0, 0, {}]]]}, {"name": "conv2d_53", "config": {"name": "conv2d_53", "filters": 512, "bias_constraint": null, "kernel_constraint": null, "trainable": true, "kernel_regularizer": {"config": {"l1": 0.0, "l2": 0.0005000000237487257}, "class_name": "L1L2"}, "strides": [1, 1], "dilation_rate": [1, 1], "activation": "linear", "activity_regularizer": null, "kernel_size": [1, 1], "kernel_initializer": {"config": {"seed": null, "distribution": "uniform", "mode": "fan_avg", "scale": 1.0}, "class_name": "VarianceScaling"}, "use_bias": false, "padding": "same", "bias_initializer": {"config": {}, "class_name": "Zeros"}, "data_format": "channels_last", "bias_regularizer": null}, "class_name": "Conv2D", "inbound_nodes": [[["add_23", 0, 0, {}]]]}, {"name": "batch_normalization_53", "config": {"name": "batch_normalization_53", "beta_regularizer": null, "moving_variance_initializer": {"config": {}, "class_name": "Ones"}, "scale": true, "gamma_initializer": {"config": {}, "class_name": "Ones"}, "trainable": true, "gamma_regularizer": null, "gamma_constraint": null, "moving_mean_initializer": {"config": {}, "class_name": "Zeros"}, "axis": -1, "epsilon": 0.001, "beta_initializer": {"config": {}, "class_name": "Zeros"}, "center": true, "momentum": 0.99, "beta_constraint": null}, "class_name": "BatchNormalization", "inbound_nodes": [[["conv2d_53", 0, 0, {}]]]}, {"name": "leaky_re_lu_53", "config": {"name": "leaky_re_lu_53", "trainable": true, "alpha": 0.10000000149011612}, "class_name": "LeakyReLU", "inbound_nodes": [[["batch_normalization_53", 0, 0, {}]]]}, {"name": "conv2d_54", "config": {"name": "conv2d_54", "filters": 1024, "bias_constraint": null, "kernel_constraint": null, "trainable": true, "kernel_regularizer": {"config": {"l1": 0.0, "l2": 0.0005000000237487257}, "class_name": "L1L2"}, "strides": [1, 1], "dilation_rate": [1, 1], "activation": "linear", "activity_regularizer": null, "kernel_size": [3, 3], "kernel_initializer": {"config": {"seed": null, "distribution": "uniform", "mode": "fan_avg", "scale": 1.0}, "class_name": "VarianceScaling"}, "use_bias": false, "padding": "same", "bias_initializer": {"config": {}, "class_name": "Zeros"}, "data_format": "channels_last", "bias_regularizer": null}, "class_name": "Conv2D", "inbound_nodes": [[["leaky_re_lu_53", 0, 0, {}]]]}, {"name": "batch_normalization_54", "config": {"name": "batch_normalization_54", "beta_regularizer": null, "moving_variance_initializer": {"config": {}, "class_name": "Ones"}, "scale": true, "gamma_initializer": {"config": {}, "class_name": "Ones"}, "trainable": true, "gamma_regularizer": null, "gamma_constraint": null, "moving_mean_initializer": {"config": {}, "class_name": "Zeros"}, "axis": -1, "epsilon": 0.001, "beta_initializer": {"config": {}, "class_name": "Zeros"}, "center": true, "momentum": 0.99, "beta_constraint": null}, "class_name": "BatchNormalization", "inbound_nodes": [[["conv2d_54", 0, 0, {}]]]}, {"name": "leaky_re_lu_54", "config": {"name": "leaky_re_lu_54", "trainable": true, "alpha": 0.10000000149011612}, "class_name": "LeakyReLU", "inbound_nodes": [[["batch_normalization_54", 0, 0, {}]]]}, {"name": "conv2d_55", "config": {"name": "conv2d_55", "filters": 512, "bias_constraint": null, "kernel_constraint": null, "trainable": true, "kernel_regularizer": {"config": {"l1": 0.0, "l2": 0.0005000000237487257}, "class_name": "L1L2"}, "strides": [1, 1], "dilation_rate": [1, 1], "activation": "linear", "activity_regularizer": null, "kernel_size": [1, 1], "kernel_initializer": {"config": {"seed": null, "distribution": "uniform", "mode": "fan_avg", "scale": 1.0}, "class_name": "VarianceScaling"}, "use_bias": false, "padding": "same", "bias_initializer": {"config": {}, "class_name": "Zeros"}, "data_format": "channels_last", "bias_regularizer": null}, "class_name": "Conv2D", "inbound_nodes": [[["leaky_re_lu_54", 0, 0, {}]]]}, {"name": "batch_normalization_55", "config": {"name": "batch_normalization_55", "beta_regularizer": null, "moving_variance_initializer": {"config": {}, "class_name": "Ones"}, "scale": true, "gamma_initializer": {"config": {}, "class_name": "Ones"}, "trainable": true, "gamma_regularizer": null, "gamma_constraint": null, "moving_mean_initializer": {"config": {}, "class_name": "Zeros"}, "axis": -1, "epsilon": 0.001, "beta_initializer": {"config": {}, "class_name": "Zeros"}, "center": true, "momentum": 0.99, "beta_constraint": null}, "class_name": "BatchNormalization", "inbound_nodes": [[["conv2d_55", 0, 0, {}]]]}, {"name": "leaky_re_lu_55", "config": {"name": "leaky_re_lu_55", "trainable": true, "alpha": 0.10000000149011612}, "class_name": "LeakyReLU", "inbound_nodes": [[["batch_normalization_55", 0, 0, {}]]]}, {"name": "conv2d_56", "config": {"name": "conv2d_56", "filters": 1024, "bias_constraint": null, "kernel_constraint": null, "trainable": true, "kernel_regularizer": {"config": {"l1": 0.0, "l2": 0.0005000000237487257}, "class_name": "L1L2"}, "strides": [1, 1], "dilation_rate": [1, 1], "activation": "linear", "activity_regularizer": null, "kernel_size": [3, 3], "kernel_initializer": {"config": {"seed": null, "distribution": "uniform", "mode": "fan_avg", "scale": 1.0}, "class_name": "VarianceScaling"}, "use_bias": false, "padding": "same", "bias_initializer": {"config": {}, "class_name": "Zeros"}, "data_format": "channels_last", "bias_regularizer": null}, "class_name": "Conv2D", "inbound_nodes": [[["leaky_re_lu_55", 0, 0, {}]]]}, {"name": "batch_normalization_56", "config": {"name": "batch_normalization_56", "beta_regularizer": null, "moving_variance_initializer": {"config": {}, "class_name": "Ones"}, "scale": true, "gamma_initializer": {"config": {}, "class_name": "Ones"}, "trainable": true, "gamma_regularizer": null, "gamma_constraint": null, "moving_mean_initializer": {"config": {}, "class_name": "Zeros"}, "axis": -1, "epsilon": 0.001, "beta_initializer": {"config": {}, "class_name": "Zeros"}, "center": true, "momentum": 0.99, "beta_constraint": null}, "class_name": "BatchNormalization", "inbound_nodes": [[["conv2d_56", 0, 0, {}]]]}, {"name": "leaky_re_lu_56", "config": {"name": "leaky_re_lu_56", "trainable": true, "alpha": 0.10000000149011612}, "class_name": "LeakyReLU", "inbound_nodes": [[["batch_normalization_56", 0, 0, {}]]]}, {"name": "conv2d_57", "config": {"name": "conv2d_57", "filters": 512, "bias_constraint": null, "kernel_constraint": null, "trainable": true, "kernel_regularizer": {"config": {"l1": 0.0, "l2": 0.0005000000237487257}, "class_name": "L1L2"}, "strides": [1, 1], "dilation_rate": [1, 1], "activation": "linear", "activity_regularizer": null, "kernel_size": [1, 1], "kernel_initializer": {"config": {"seed": null, "distribution": "uniform", "mode": "fan_avg", "scale": 1.0}, "class_name": "VarianceScaling"}, "use_bias": false, "padding": "same", "bias_initializer": {"config": {}, "class_name": "Zeros"}, "data_format": "channels_last", "bias_regularizer": null}, "class_name": "Conv2D", "inbound_nodes": [[["leaky_re_lu_56", 0, 0, {}]]]}, {"name": "batch_normalization_57", "config": {"name": "batch_normalization_57", "beta_regularizer": null, "moving_variance_initializer": {"config": {}, "class_name": "Ones"}, "scale": true, "gamma_initializer": {"config": {}, "class_name": "Ones"}, "trainable": true, "gamma_regularizer": null, "gamma_constraint": null, "moving_mean_initializer": {"config": {}, "class_name": "Zeros"}, "axis": -1, "epsilon": 0.001, "beta_initializer": {"config": {}, "class_name": "Zeros"}, "center": true, "momentum": 0.99, "beta_constraint": null}, "class_name": "BatchNormalization", "inbound_nodes": [[["conv2d_57", 0, 0, {}]]]}, {"name": "leaky_re_lu_57", "config": {"name": "leaky_re_lu_57", "trainable": true, "alpha": 0.10000000149011612}, "class_name": "LeakyReLU", "inbound_nodes": [[["batch_normalization_57", 0, 0, {}]]]}, {"name": "conv2d_60", "config": {"name": "conv2d_60", "filters": 256, "bias_constraint": null, "kernel_constraint": null, "trainable": true, "kernel_regularizer": {"config": {"l1": 0.0, "l2": 0.0005000000237487257}, "class_name": "L1L2"}, "strides": [1, 1], "dilation_rate": [1, 1], "activation": "linear", "activity_regularizer": null, "kernel_size": [1, 1], "kernel_initializer": {"config": {"seed": null, "distribution": "uniform", "mode": "fan_avg", "scale": 1.0}, "class_name": "VarianceScaling"}, "use_bias": false, "padding": "same", "bias_initializer": {"config": {}, "class_name": "Zeros"}, "data_format": "channels_last", "bias_regularizer": null}, "class_name": "Conv2D", "inbound_nodes": [[["leaky_re_lu_57", 0, 0, {}]]]}, {"name": "batch_normalization_59", "config": {"name": "batch_normalization_59", "beta_regularizer": null, "moving_variance_initializer": {"config": {}, "class_name": "Ones"}, "scale": true, "gamma_initializer": {"config": {}, "class_name": "Ones"}, "trainable": true, "gamma_regularizer": null, "gamma_constraint": null, "moving_mean_initializer": {"config": {}, "class_name": "Zeros"}, "axis": -1, "epsilon": 0.001, "beta_initializer": {"config": {}, "class_name": "Zeros"}, "center": true, "momentum": 0.99, "beta_constraint": null}, "class_name": "BatchNormalization", "inbound_nodes": [[["conv2d_60", 0, 0, {}]]]}, {"name": "leaky_re_lu_59", "config": {"name": "leaky_re_lu_59", "trainable": true, "alpha": 0.10000000149011612}, "class_name": "LeakyReLU", "inbound_nodes": [[["batch_normalization_59", 0, 0, {}]]]}, {"name": "up_sampling2d_1", "config": {"name": "up_sampling2d_1", "trainable": true, "data_format": "channels_last", "size": [2, 2]}, "class_name": "UpSampling2D", "inbound_nodes": [[["leaky_re_lu_59", 0, 0, {}]]]}, {"name": "concatenate_1", "config": {"name": "concatenate_1", "trainable": true, "axis": -1}, "class_name": "Concatenate", "inbound_nodes": [[["up_sampling2d_1", 0, 0, {}], ["add_19", 0, 0, {}]]]}, {"name": "conv2d_61", "config": {"name": "conv2d_61", "filters": 256, "bias_constraint": null, "kernel_constraint": null, "trainable": true, "kernel_regularizer": {"config": {"l1": 0.0, "l2": 0.0005000000237487257}, "class_name": "L1L2"}, "strides": [1, 1], "dilation_rate": [1, 1], "activation": "linear", "activity_regularizer": null, "kernel_size": [1, 1], "kernel_initializer": {"config": {"seed": null, "distribution": "uniform", "mode": "fan_avg", "scale": 1.0}, "class_name": "VarianceScaling"}, "use_bias": false, "padding": "same", "bias_initializer": {"config": {}, "class_name": "Zeros"}, "data_format": "channels_last", "bias_regularizer": null}, "class_name": "Conv2D", "inbound_nodes": [[["concatenate_1", 0, 0, {}]]]}, {"name": "batch_normalization_60", "config": {"name": "batch_normalization_60", "beta_regularizer": null, "moving_variance_initializer": {"config": {}, "class_name": "Ones"}, "scale": true, "gamma_initializer": {"config": {}, "class_name": "Ones"}, "trainable": true, "gamma_regularizer": null, "gamma_constraint": null, "moving_mean_initializer": {"config": {}, "class_name": "Zeros"}, "axis": -1, "epsilon": 0.001, "beta_initializer": {"config": {}, "class_name": "Zeros"}, "center": true, "momentum": 0.99, "beta_constraint": null}, "class_name": "BatchNormalization", "inbound_nodes": [[["conv2d_61", 0, 0, {}]]]}, {"name": "leaky_re_lu_60", "config": {"name": "leaky_re_lu_60", "trainable": true, "alpha": 0.10000000149011612}, "class_name": "LeakyReLU", "inbound_nodes": [[["batch_normalization_60", 0, 0, {}]]]}, {"name": "conv2d_62", "config": {"name": "conv2d_62", "filters": 512, "bias_constraint": null, "kernel_constraint": null, "trainable": true, "kernel_regularizer": {"config": {"l1": 0.0, "l2": 0.0005000000237487257}, "class_name": "L1L2"}, "strides": [1, 1], "dilation_rate": [1, 1], "activation": "linear", "activity_regularizer": null, "kernel_size": [3, 3], "kernel_initializer": {"config": {"seed": null, "distribution": "uniform", "mode": "fan_avg", "scale": 1.0}, "class_name": "VarianceScaling"}, "use_bias": false, "padding": "same", "bias_initializer": {"config": {}, "class_name": "Zeros"}, "data_format": "channels_last", "bias_regularizer": null}, "class_name": "Conv2D", "inbound_nodes": [[["leaky_re_lu_60", 0, 0, {}]]]}, {"name": "batch_normalization_61", "config": {"name": "batch_normalization_61", "beta_regularizer": null, "moving_variance_initializer": {"config": {}, "class_name": "Ones"}, "scale": true, "gamma_initializer": {"config": {}, "class_name": "Ones"}, "trainable": true, "gamma_regularizer": null, "gamma_constraint": null, "moving_mean_initializer": {"config": {}, "class_name": "Zeros"}, "axis": -1, "epsilon": 0.001, "beta_initializer": {"config": {}, "class_name": "Zeros"}, "center": true, "momentum": 0.99, "beta_constraint": null}, "class_name": "BatchNormalization", "inbound_nodes": [[["conv2d_62", 0, 0, {}]]]}, {"name": "leaky_re_lu_61", "config": {"name": "leaky_re_lu_61", "trainable": true, "alpha": 0.10000000149011612}, "class_name": "LeakyReLU", "inbound_nodes": [[["batch_normalization_61", 0, 0, {}]]]}, {"name": "conv2d_63", "config": {"name": "conv2d_63", "filters": 256, "bias_constraint": null, "kernel_constraint": null, "trainable": true, "kernel_regularizer": {"config": {"l1": 0.0, "l2": 0.0005000000237487257}, "class_name": "L1L2"}, "strides": [1, 1], "dilation_rate": [1, 1], "activation": "linear", "activity_regularizer": null, "kernel_size": [1, 1], "kernel_initializer": {"config": {"seed": null, "distribution": "uniform", "mode": "fan_avg", "scale": 1.0}, "class_name": "VarianceScaling"}, "use_bias": false, "padding": "same", "bias_initializer": {"config": {}, "class_name": "Zeros"}, "data_format": "channels_last", "bias_regularizer": null}, "class_name": "Conv2D", "inbound_nodes": [[["leaky_re_lu_61", 0, 0, {}]]]}, {"name": "batch_normalization_62", "config": {"name": "batch_normalization_62", "beta_regularizer": null, "moving_variance_initializer": {"config": {}, "class_name": "Ones"}, "scale": true, "gamma_initializer": {"config": {}, "class_name": "Ones"}, "trainable": true, "gamma_regularizer": null, "gamma_constraint": null, "moving_mean_initializer": {"config": {}, "class_name": "Zeros"}, "axis": -1, "epsilon": 0.001, "beta_initializer": {"config": {}, "class_name": "Zeros"}, "center": true, "momentum": 0.99, "beta_constraint": null}, "class_name": "BatchNormalization", "inbound_nodes": [[["conv2d_63", 0, 0, {}]]]}, {"name": "leaky_re_lu_62", "config": {"name": "leaky_re_lu_62", "trainable": true, "alpha": 0.10000000149011612}, "class_name": "LeakyReLU", "inbound_nodes": [[["batch_normalization_62", 0, 0, {}]]]}, {"name": "conv2d_64", "config": {"name": "conv2d_64", "filters": 512, "bias_constraint": null, "kernel_constraint": null, "trainable": true, "kernel_regularizer": {"config": {"l1": 0.0, "l2": 0.0005000000237487257}, "class_name": "L1L2"}, "strides": [1, 1], "dilation_rate": [1, 1], "activation": "linear", "activity_regularizer": null, "kernel_size": [3, 3], "kernel_initializer": {"config": {"seed": null, "distribution": "uniform", "mode": "fan_avg", "scale": 1.0}, "class_name": "VarianceScaling"}, "use_bias": false, "padding": "same", "bias_initializer": {"config": {}, "class_name": "Zeros"}, "data_format": "channels_last", "bias_regularizer": null}, "class_name": "Conv2D", "inbound_nodes": [[["leaky_re_lu_62", 0, 0, {}]]]}, {"name": "batch_normalization_63", "config": {"name": "batch_normalization_63", "beta_regularizer": null, "moving_variance_initializer": {"config": {}, "class_name": "Ones"}, "scale": true, "gamma_initializer": {"config": {}, "class_name": "Ones"}, "trainable": true, "gamma_regularizer": null, "gamma_constraint": null, "moving_mean_initializer": {"config": {}, "class_name": "Zeros"}, "axis": -1, "epsilon": 0.001, "beta_initializer": {"config": {}, "class_name": "Zeros"}, "center": true, "momentum": 0.99, "beta_constraint": null}, "class_name": "BatchNormalization", "inbound_nodes": [[["conv2d_64", 0, 0, {}]]]}, {"name": "leaky_re_lu_63", "config": {"name": "leaky_re_lu_63", "trainable": true, "alpha": 0.10000000149011612}, "class_name": "LeakyReLU", "inbound_nodes": [[["batch_normalization_63", 0, 0, {}]]]}, {"name": "conv2d_65", "config": {"name": "conv2d_65", "filters": 256, "bias_constraint": null, "kernel_constraint": null, "trainable": true, "kernel_regularizer": {"config": {"l1": 0.0, "l2": 0.0005000000237487257}, "class_name": "L1L2"}, "strides": [1, 1], "dilation_rate": [1, 1], "activation": "linear", "activity_regularizer": null, "kernel_size": [1, 1], "kernel_initializer": {"config": {"seed": null, "distribution": "uniform", "mode": "fan_avg", "scale": 1.0}, "class_name": "VarianceScaling"}, "use_bias": false, "padding": "same", "bias_initializer": {"config": {}, "class_name": "Zeros"}, "data_format": "channels_last", "bias_regularizer": null}, "class_name": "Conv2D", "inbound_nodes": [[["leaky_re_lu_63", 0, 0, {}]]]}, {"name": "batch_normalization_64", "config": {"name": "batch_normalization_64", "beta_regularizer": null, "moving_variance_initializer": {"config": {}, "class_name": "Ones"}, "scale": true, "gamma_initializer": {"config": {}, "class_name": "Ones"}, "trainable": true, "gamma_regularizer": null, "gamma_constraint": null, "moving_mean_initializer": {"config": {}, "class_name": "Zeros"}, "axis": -1, "epsilon": 0.001, "beta_initializer": {"config": {}, "class_name": "Zeros"}, "center": true, "momentum": 0.99, "beta_constraint": null}, "class_name": "BatchNormalization", "inbound_nodes": [[["conv2d_65", 0, 0, {}]]]}, {"name": "leaky_re_lu_64", "config": {"name": "leaky_re_lu_64", "trainable": true, "alpha": 0.10000000149011612}, "class_name": "LeakyReLU", "inbound_nodes": [[["batch_normalization_64", 0, 0, {}]]]}, {"name": "conv2d_68", "config": {"name": "conv2d_68", "filters": 128, "bias_constraint": null, "kernel_constraint": null, "trainable": true, "kernel_regularizer": {"config": {"l1": 0.0, "l2": 0.0005000000237487257}, "class_name": "L1L2"}, "strides": [1, 1], "dilation_rate": [1, 1], "activation": "linear", "activity_regularizer": null, "kernel_size": [1, 1], "kernel_initializer": {"config": {"seed": null, "distribution": "uniform", "mode": "fan_avg", "scale": 1.0}, "class_name": "VarianceScaling"}, "use_bias": false, "padding": "same", "bias_initializer": {"config": {}, "class_name": "Zeros"}, "data_format": "channels_last", "bias_regularizer": null}, "class_name": "Conv2D", "inbound_nodes": [[["leaky_re_lu_64", 0, 0, {}]]]}, {"name": "batch_normalization_66", "config": {"name": "batch_normalization_66", "beta_regularizer": null, "moving_variance_initializer": {"config": {}, "class_name": "Ones"}, "scale": true, "gamma_initializer": {"config": {}, "class_name": "Ones"}, "trainable": true, "gamma_regularizer": null, "gamma_constraint": null, "moving_mean_initializer": {"config": {}, "class_name": "Zeros"}, "axis": -1, "epsilon": 0.001, "beta_initializer": {"config": {}, "class_name": "Zeros"}, "center": true, "momentum": 0.99, "beta_constraint": null}, "class_name": "BatchNormalization", "inbound_nodes": [[["conv2d_68", 0, 0, {}]]]}, {"name": "leaky_re_lu_66", "config": {"name": "leaky_re_lu_66", "trainable": true, "alpha": 0.10000000149011612}, "class_name": "LeakyReLU", "inbound_nodes": [[["batch_normalization_66", 0, 0, {}]]]}, {"name": "up_sampling2d_2", "config": {"name": "up_sampling2d_2", "trainable": true, "data_format": "channels_last", "size": [2, 2]}, "class_name": "UpSampling2D", "inbound_nodes": [[["leaky_re_lu_66", 0, 0, {}]]]}, {"name": "concatenate_2", "config": {"name": "concatenate_2", "trainable": true, "axis": -1}, "class_name": "Concatenate", "inbound_nodes": [[["up_sampling2d_2", 0, 0, {}], ["add_11", 0, 0, {}]]]}, {"name": "conv2d_69", "config": {"name": "conv2d_69", "filters": 128, "bias_constraint": null, "kernel_constraint": null, "trainable": true, "kernel_regularizer": {"config": {"l1": 0.0, "l2": 0.0005000000237487257}, "class_name": "L1L2"}, "strides": [1, 1], "dilation_rate": [1, 1], "activation": "linear", "activity_regularizer": null, "kernel_size": [1, 1], "kernel_initializer": {"config": {"seed": null, "distribution": "uniform", "mode": "fan_avg", "scale": 1.0}, "class_name": "VarianceScaling"}, "use_bias": false, "padding": "same", "bias_initializer": {"config": {}, "class_name": "Zeros"}, "data_format": "channels_last", "bias_regularizer": null}, "class_name": "Conv2D", "inbound_nodes": [[["concatenate_2", 0, 0, {}]]]}, {"name": "batch_normalization_67", "config": {"name": "batch_normalization_67", "beta_regularizer": null, "moving_variance_initializer": {"config": {}, "class_name": "Ones"}, "scale": true, "gamma_initializer": {"config": {}, "class_name": "Ones"}, "trainable": true, "gamma_regularizer": null, "gamma_constraint": null, "moving_mean_initializer": {"config": {}, "class_name": "Zeros"}, "axis": -1, "epsilon": 0.001, "beta_initializer": {"config": {}, "class_name": "Zeros"}, "center": true, "momentum": 0.99, "beta_constraint": null}, "class_name": "BatchNormalization", "inbound_nodes": [[["conv2d_69", 0, 0, {}]]]}, {"name": "leaky_re_lu_67", "config": {"name": "leaky_re_lu_67", "trainable": true, "alpha": 0.10000000149011612}, "class_name": "LeakyReLU", "inbound_nodes": [[["batch_normalization_67", 0, 0, {}]]]}, {"name": "conv2d_70", "config": {"name": "conv2d_70", "filters": 256, "bias_constraint": null, "kernel_constraint": null, "trainable": true, "kernel_regularizer": {"config": {"l1": 0.0, "l2": 0.0005000000237487257}, "class_name": "L1L2"}, "strides": [1, 1], "dilation_rate": [1, 1], "activation": "linear", "activity_regularizer": null, "kernel_size": [3, 3], "kernel_initializer": {"config": {"seed": null, "distribution": "uniform", "mode": "fan_avg", "scale": 1.0}, "class_name": "VarianceScaling"}, "use_bias": false, "padding": "same", "bias_initializer": {"config": {}, "class_name": "Zeros"}, "data_format": "channels_last", "bias_regularizer": null}, "class_name": "Conv2D", "inbound_nodes": [[["leaky_re_lu_67", 0, 0, {}]]]}, {"name": "batch_normalization_68", "config": {"name": "batch_normalization_68", "beta_regularizer": null, "moving_variance_initializer": {"config": {}, "class_name": "Ones"}, "scale": true, "gamma_initializer": {"config": {}, "class_name": "Ones"}, "trainable": true, "gamma_regularizer": null, "gamma_constraint": null, "moving_mean_initializer": {"config": {}, "class_name": "Zeros"}, "axis": -1, "epsilon": 0.001, "beta_initializer": {"config": {}, "class_name": "Zeros"}, "center": true, "momentum": 0.99, "beta_constraint": null}, "class_name": "BatchNormalization", "inbound_nodes": [[["conv2d_70", 0, 0, {}]]]}, {"name": "leaky_re_lu_68", "config": {"name": "leaky_re_lu_68", "trainable": true, "alpha": 0.10000000149011612}, "class_name": "LeakyReLU", "inbound_nodes": [[["batch_normalization_68", 0, 0, {}]]]}, {"name": "conv2d_71", "config": {"name": "conv2d_71", "filters": 128, "bias_constraint": null, "kernel_constraint": null, "trainable": true, "kernel_regularizer": {"config": {"l1": 0.0, "l2": 0.0005000000237487257}, "class_name": "L1L2"}, "strides": [1, 1], "dilation_rate": [1, 1], "activation": "linear", "activity_regularizer": null, "kernel_size": [1, 1], "kernel_initializer": {"config": {"seed": null, "distribution": "uniform", "mode": "fan_avg", "scale": 1.0}, "class_name": "VarianceScaling"}, "use_bias": false, "padding": "same", "bias_initializer": {"config": {}, "class_name": "Zeros"}, "data_format": "channels_last", "bias_regularizer": null}, "class_name": "Conv2D", "inbound_nodes": [[["leaky_re_lu_68", 0, 0, {}]]]}, {"name": "batch_normalization_69", "config": {"name": "batch_normalization_69", "beta_regularizer": null, "moving_variance_initializer": {"config": {}, "class_name": "Ones"}, "scale": true, "gamma_initializer": {"config": {}, "class_name": "Ones"}, "trainable": true, "gamma_regularizer": null, "gamma_constraint": null, "moving_mean_initializer": {"config": {}, "class_name": "Zeros"}, "axis": -1, "epsilon": 0.001, "beta_initializer": {"config": {}, "class_name": "Zeros"}, "center": true, "momentum": 0.99, "beta_constraint": null}, "class_name": "BatchNormalization", "inbound_nodes": [[["conv2d_71", 0, 0, {}]]]}, {"name": "leaky_re_lu_69", "config": {"name": "leaky_re_lu_69", "trainable": true, "alpha": 0.10000000149011612}, "class_name": "LeakyReLU", "inbound_nodes": [[["batch_normalization_69", 0, 0, {}]]]}, {"name": "conv2d_72", "config": {"name": "conv2d_72", "filters": 256, "bias_constraint": null, "kernel_constraint": null, "trainable": true, "kernel_regularizer": {"config": {"l1": 0.0, "l2": 0.0005000000237487257}, "class_name": "L1L2"}, "strides": [1, 1], "dilation_rate": [1, 1], "activation": "linear", "activity_regularizer": null, "kernel_size": [3, 3], "kernel_initializer": {"config": {"seed": null, "distribution": "uniform", "mode": "fan_avg", "scale": 1.0}, "class_name": "VarianceScaling"}, "use_bias": false, "padding": "same", "bias_initializer": {"config": {}, "class_name": "Zeros"}, "data_format": "channels_last", "bias_regularizer": null}, "class_name": "Conv2D", "inbound_nodes": [[["leaky_re_lu_69", 0, 0, {}]]]}, {"name": "batch_normalization_70", "config": {"name": "batch_normalization_70", "beta_regularizer": null, "moving_variance_initializer": {"config": {}, "class_name": "Ones"}, "scale": true, "gamma_initializer": {"config": {}, "class_name": "Ones"}, "trainable": true, "gamma_regularizer": null, "gamma_constraint": null, "moving_mean_initializer": {"config": {}, "class_name": "Zeros"}, "axis": -1, "epsilon": 0.001, "beta_initializer": {"config": {}, "class_name": "Zeros"}, "center": true, "momentum": 0.99, "beta_constraint": null}, "class_name": "BatchNormalization", "inbound_nodes": [[["conv2d_72", 0, 0, {}]]]}, {"name": "leaky_re_lu_70", "config": {"name": "leaky_re_lu_70", "trainable": true, "alpha": 0.10000000149011612}, "class_name": "LeakyReLU", "inbound_nodes": [[["batch_normalization_70", 0, 0, {}]]]}, {"name": "conv2d_73", "config": {"name": "conv2d_73", "filters": 128, "bias_constraint": null, "kernel_constraint": null, "trainable": true, "kernel_regularizer": {"config": {"l1": 0.0, "l2": 0.0005000000237487257}, "class_name": "L1L2"}, "strides": [1, 1], "dilation_rate": [1, 1], "activation": "linear", "activity_regularizer": null, "kernel_size": [1, 1], "kernel_initializer": {"config": {"seed": null, "distribution": "uniform", "mode": "fan_avg", "scale": 1.0}, "class_name": "VarianceScaling"}, "use_bias": false, "padding": "same", "bias_initializer": {"config": {}, "class_name": "Zeros"}, "data_format": "channels_last", "bias_regularizer": null}, "class_name": "Conv2D", "inbound_nodes": [[["leaky_re_lu_70", 0, 0, {}]]]}, {"name": "batch_normalization_71", "config": {"name": "batch_normalization_71", "beta_regularizer": null, "moving_variance_initializer": {"config": {}, "class_name": "Ones"}, "scale": true, "gamma_initializer": {"config": {}, "class_name": "Ones"}, "trainable": true, "gamma_regularizer": null, "gamma_constraint": null, "moving_mean_initializer": {"config": {}, "class_name": "Zeros"}, "axis": -1, "epsilon": 0.001, "beta_initializer": {"config": {}, "class_name": "Zeros"}, "center": true, "momentum": 0.99, "beta_constraint": null}, "class_name": "BatchNormalization", "inbound_nodes": [[["conv2d_73", 0, 0, {}]]]}, {"name": "leaky_re_lu_71", "config": {"name": "leaky_re_lu_71", "trainable": true, "alpha": 0.10000000149011612}, "class_name": "LeakyReLU", "inbound_nodes": [[["batch_normalization_71", 0, 0, {}]]]}, {"name": "conv2d_58", "config": {"name": "conv2d_58", "filters": 1024, "bias_constraint": null, "kernel_constraint": null, "trainable": true, "kernel_regularizer": {"config": {"l1": 0.0, "l2": 0.0005000000237487257}, "class_name": "L1L2"}, "strides": [1, 1], "dilation_rate": [1, 1], "activation": "linear", "activity_regularizer": null, "kernel_size": [3, 3], "kernel_initializer": {"config": {"seed": null, "distribution": "uniform", "mode": "fan_avg", "scale": 1.0}, "class_name": "VarianceScaling"}, "use_bias": false, "padding": "same", "bias_initializer": {"config": {}, "class_name": "Zeros"}, "data_format": "channels_last", "bias_regularizer": null}, "class_name": "Conv2D", "inbound_nodes": [[["leaky_re_lu_57", 0, 0, {}]]]}, {"name": "conv2d_66", "config": {"name": "conv2d_66", "filters": 512, "bias_constraint": null, "kernel_constraint": null, "trainable": true, "kernel_regularizer": {"config": {"l1": 0.0, "l2": 0.0005000000237487257}, "class_name": "L1L2"}, "strides": [1, 1], "dilation_rate": [1, 1], "activation": "linear", "activity_regularizer": null, "kernel_size": [3, 3], "kernel_initializer": {"config": {"seed": null, "distribution": "uniform", "mode": "fan_avg", "scale": 1.0}, "class_name": "VarianceScaling"}, "use_bias": false, "padding": "same", "bias_initializer": {"config": {}, "class_name": "Zeros"}, "data_format": "channels_last", "bias_regularizer": null}, "class_name": "Conv2D", "inbound_nodes": [[["leaky_re_lu_64", 0, 0, {}]]]}, {"name": "conv2d_74", "config": {"name": "conv2d_74", "filters": 256, "bias_constraint": null, "kernel_constraint": null, "trainable": true, "kernel_regularizer": {"config": {"l1": 0.0, "l2": 0.0005000000237487257}, "class_name": "L1L2"}, "strides": [1, 1], "dilation_rate": [1, 1], "activation": "linear", "activity_regularizer": null, "kernel_size": [3, 3], "kernel_initializer": {"config": {"seed": null, "distribution": "uniform", "mode": "fan_avg", "scale": 1.0}, "class_name": "VarianceScaling"}, "use_bias": false, "padding": "same", "bias_initializer": {"config": {}, "class_name": "Zeros"}, "data_format": "channels_last", "bias_regularizer": null}, "class_name": "Conv2D", "inbound_nodes": [[["leaky_re_lu_71", 0, 0, {}]]]}, {"name": "batch_normalization_58", "config": {"name": "batch_normalization_58", "beta_regularizer": null, "moving_variance_initializer": {"config": {}, "class_name": "Ones"}, "scale": true, "gamma_initializer": {"config": {}, "class_name": "Ones"}, "trainable": true, "gamma_regularizer": null, "gamma_constraint": null, "moving_mean_initializer": {"config": {}, "class_name": "Zeros"}, "axis": -1, "epsilon": 0.001, "beta_initializer": {"config": {}, "class_name": "Zeros"}, "center": true, "momentum": 0.99, "beta_constraint": null}, "class_name": "BatchNormalization", "inbound_nodes": [[["conv2d_58", 0, 0, {}]]]}, {"name": "batch_normalization_65", "config": {"name": "batch_normalization_65", "beta_regularizer": null, "moving_variance_initializer": {"config": {}, "class_name": "Ones"}, "scale": true, "gamma_initializer": {"config": {}, "class_name": "Ones"}, "trainable": true, "gamma_regularizer": null, "gamma_constraint": null, "moving_mean_initializer": {"config": {}, "class_name": "Zeros"}, "axis": -1, "epsilon": 0.001, "beta_initializer": {"config": {}, "class_name": "Zeros"}, "center": true, "momentum": 0.99, "beta_constraint": null}, "class_name": "BatchNormalization", "inbound_nodes": [[["conv2d_66", 0, 0, {}]]]}, {"name": "batch_normalization_72", "config": {"name": "batch_normalization_72", "beta_regularizer": null, "moving_variance_initializer": {"config": {}, "class_name": "Ones"}, "scale": true, "gamma_initializer": {"config": {}, "class_name": "Ones"}, "trainable": true, "gamma_regularizer": null, "gamma_constraint": null, "moving_mean_initializer": {"config": {}, "class_name": "Zeros"}, "axis": -1, "epsilon": 0.001, "beta_initializer": {"config": {}, "class_name": "Zeros"}, "center": true, "momentum": 0.99, "beta_constraint": null}, "class_name": "BatchNormalization", "inbound_nodes": [[["conv2d_74", 0, 0, {}]]]}, {"name": "leaky_re_lu_58", "config": {"name": "leaky_re_lu_58", "trainable": true, "alpha": 0.10000000149011612}, "class_name": "LeakyReLU", "inbound_nodes": [[["batch_normalization_58", 0, 0, {}]]]}, {"name": "leaky_re_lu_65", "config": {"name": "leaky_re_lu_65", "trainable": true, "alpha": 0.10000000149011612}, "class_name": "LeakyReLU", "inbound_nodes": [[["batch_normalization_65", 0, 0, {}]]]}, {"name": "leaky_re_lu_72", "config": {"name": "leaky_re_lu_72", "trainable": true, "alpha": 0.10000000149011612}, "class_name": "LeakyReLU", "inbound_nodes": [[["batch_normalization_72", 0, 0, {}]]]}, {"name": "conv2d_59", "config": {"name": "conv2d_59", "filters": 18, "bias_constraint": null, "kernel_constraint": null, "trainable": true, "kernel_regularizer": {"config": {"l1": 0.0, "l2": 0.0005000000237487257}, "class_name": "L1L2"}, "strides": [1, 1], "dilation_rate": [1, 1], "activation": "linear", "activity_regularizer": null, "kernel_size": [1, 1], "kernel_initializer": {"config": {"seed": null, "distribution": "uniform", "mode": "fan_avg", "scale": 1.0}, "class_name": "VarianceScaling"}, "use_bias": true, "padding": "same", "bias_initializer": {"config": {}, "class_name": "Zeros"}, "data_format": "channels_last", "bias_regularizer": null}, "class_name": "Conv2D", "inbound_nodes": [[["leaky_re_lu_58", 0, 0, {}]]]}, {"name": "conv2d_67", "config": {"name": "conv2d_67", "filters": 18, "bias_constraint": null, "kernel_constraint": null, "trainable": true, "kernel_regularizer": {"config": {"l1": 0.0, "l2": 0.0005000000237487257}, "class_name": "L1L2"}, "strides": [1, 1], "dilation_rate": [1, 1], "activation": "linear", "activity_regularizer": null, "kernel_size": [1, 1], "kernel_initializer": {"config": {"seed": null, "distribution": "uniform", "mode": "fan_avg", "scale": 1.0}, "class_name": "VarianceScaling"}, "use_bias": true, "padding": "same", "bias_initializer": {"config": {}, "class_name": "Zeros"}, "data_format": "channels_last", "bias_regularizer": null}, "class_name": "Conv2D", "inbound_nodes": [[["leaky_re_lu_65", 0, 0, {}]]]}, {"name": "conv2d_75", "config": {"name": "conv2d_75", "filters": 18, "bias_constraint": null, "kernel_constraint": null, "trainable": true, "kernel_regularizer": {"config": {"l1": 0.0, "l2": 0.0005000000237487257}, "class_name": "L1L2"}, "strides": [1, 1], "dilation_rate": [1, 1], "activation": "linear", "activity_regularizer": null, "kernel_size": [1, 1], "kernel_initializer": {"config": {"seed": null, "distribution": "uniform", "mode": "fan_avg", "scale": 1.0}, "class_name": "VarianceScaling"}, "use_bias": true, "padding": "same", "bias_initializer": {"config": {}, "class_name": "Zeros"}, "data_format": "channels_last", "bias_regularizer": null}, "class_name": "Conv2D", "inbound_nodes": [[["leaky_re_lu_72", 0, 0, {}]]]}], "output_layers": [["conv2d_59", 0, 0], ["conv2d_67", 0, 0], ["conv2d_75", 0, 0]], "input_layers": [["input_3", 0, 0]]}, "class_name": "Model", "backend": "tensorflow", "keras_version": "2.1.5"}